ML_model/mejaku_model_v2.tflite (tflite, 13724 bytes, 7 tensors)

dense_2/bias f4 [16]
00000000: 3f28 54bc 4d62 513c 962f 4ebc 7579 4ebc
00000010: a634 4f3c 9edf 513c 03b6 5ebc f6a8 523c
00000020: fd6e 4fbc 4d1b 59bc 4d14 503c 8da5 523c
00000030: 62ce 52bc f32d 553c 542e 52bc be76 4fbc
-0.012949049 0.012779784 -0.012584588 -0.0126022 0.01264683 0.012809662 -0.0135932 0.012857666
-0.012660739 -0.013251138 0.012700153 0.012856853 -0.012866588 0.013011443 -0.012828428 -0.012662588

dense_1/bias f4 [32]
00000000: a7a0 843c 0000 0000 be31 8f3c 0a1a f63c
00000010: 0000 0000 10b9 a73b 0000 0000 4266 2d3d
00000020: d533 983c eb81 953d 28b3 573c 6566 09bc
00000030: 0000 0000 d79b 643c 0000 0000 9b6f e2bc
00000040: 6af1 d1bb b496 4bbc 40d3 a8bb e16e 9b3c
00000050: c5ac 57bb a44d 11bc 0000 0000 425e 623c
00000060: 3bfc 703c 0000 0000 0000 0000 0000 0000
00000070: 1922 0f3c 348c 45bc 99cf 3abc eac5 523c
0.016189886 0.0 0.017479774 0.030041713 0.0 0.0051184967 0.0 0.04233385
0.018579403 0.073001705 0.013165273 -0.008386229 0.0 0.013953171 0.0 -0.027641108
-0.0064069526 -0.012426067 -0.005152136 0.01897377 -0.0032909375 -0.008868609 0.0 0.013816418
0.014708574 0.0 0.0 0.0 0.008736157 -0.012057353 -0.011402034 0.012864569

dense/bias f4 [64]
00000000: 1a94 41bc d831 453c bbae b9bc 28ae 5a3c
00000010: ed23 9dbc 14c2 8a3c 79a5 983b 9d63 43bc
00000020: 126f 463c a3a0 6a3c 0449 5f3c 1d8c 6ebc
00000030: 3bb2 2d3c 4af1 413c f8d2 b7bc e4dc 49bc
00000040: 9f2e c83c 09c2 39bc fd85 71bc 7775 a5bc
00000050: c32c 4b3c 4935 78bc a29d 063c 16b5 8d3c
00000060: 605e a03c 71d1 613c 5548 96bb aa6a 58bc
00000070: 6b45 5f3c 3d27 d6bb 4abc 813c bb33 a23c
00000080: 36dd 80bc 84a5 533c 2a45 963c 78d6 26bc
00000090: 8bb9 9dbb 8917 983c 0fa3 113c a9d7 353c
000000a0: 10b3 893c 4e24 663c 73e9 d13a 1c2b 2b3c
000000b0: dd3b 92bc 3573 5ebc e526 87bc 855a b83c
000000c0: f487 a73c a740 573c b459 86bc 50ed 3bbc
000000d0: 2937 77bc 1c9e 733b cc9c fd3b 5439 49bc
000000e0: 5e7d 2ebc 8689 7b3c d1d8 63bc 548a bc3c
000000f0: ecde 52bc fb49 303c 0556 8ebc 0dce 613c
-0.011815095 0.012035809 -0.022666326 0.013347186 -0.01918217 0.016938247 0.0046583978 -0.011925605
0.012111442 0.014320525 0.013628248 -0.014559773 0.0106015755 0.011837313 -0.022439465 -0.012320731
0.024436293 -0.0113377655 -0.014741418 -0.020197613 0.012400809 -0.015149423 0.0082162935 0.017298263
0.019576252 0.013782845 -0.0045862594 -0.013209024 0.01362739 -0.0065354393 0.015836854 0.019800058
-0.015730482 0.01291788 0.018343527 -0.010182969 -0.004813378 0.01856591 0.008888974 0.011098781
0.016809016 0.014046742 0.0016015008 0.01044729 -0.01785081 -0.013577272 -0.016498039 0.0225041
0.02045057 0.013137973 -0.016400196 -0.011470154 -0.015088835 0.0037173098 0.007739639 -0.0122817345
-0.010650007 0.015352612 -0.0139066735 0.023015179 -0.0128705315 0.010759826 -0.017375002 0.0137820365

sequential/dense/MatMul f4 [64, 4]
00000000: 6f84 2e3e 9da0 8bbe 6c79 57be 72c3 393d
00000010: 7cad 0cbe 2d78 f9bd d849 343e 12db 863e
00000020: 35a8 8e3d 0828 1e3e 7de9 60be 8632 36be
00000030: 2756 3abe b51f 1cbe 8413 683e 3b4b c43d
00000040: f90b a2bb 8b89 413e 89c3 6abe 0907 a0bd
00000050: 491b 053d cc65 873c 1d3d 68be d8a9 a0bd
00000060: 4dde a9bd b303 0e3e 6417 24be 23a6 95bc
00000070: 0972 97be 6b8f 98bd 1a6a ac3d 50c6 903e
00000080: 8b11 be3d 4c67 8c3e 11d4 f53d 6321 0e3e
00000090: 5906 ecbd d266 bdbd 5446 003e 17ad 643d
000000a0: 7ed2 f93d 605a 263e cee5 313d 0c5e 9a3e
000000b0: c158 0dbe de6f 8fbe deba de3d 6339 85be
000000c0: dbfc 93be 1aba e8bd e59c 83be 52ec 273e
000000d0: ccd3 0cbe 7c61 6d3e f669 933d 4162 3e3e
000000e0: f9bd 22be b272 843e 2347 5abe 537a d43d
000000f0: b0b7 543e a7cb a6bd 1e46 503e 33c6 5abe
00000100: 22a2 d03d f9b3 80be cf4c 4a3c ac72 58bd
00000110: 04e7 c9bc 6a1e 5b3e e6e8 543e 2c1e 8c3e
00000120: 965d 41be c2bf 703e 72cb 61be ab8a 8f3e
00000130: 0a15 a5bd 3f19 dd3d a204 723e 8642 c23c
00000140: 579c 383c fcda 4dbd 20a4 8bbd b875 9ebd
00000150: 464d 013d 71bc 6cbe 04b4 bfbd 5a94 df3c
00000160: da45 573e 9965 033e a44c 16be 8754 cebd
00000170: 8e12 ee3b cf95 4e3d dc28 13bd 7f19 153e
00000180: aff8 9abd 2801 413d 4f93 2dbe 5d07 81bd
00000190: cd44 8c3e abbb 0e3e 558c 983e fed0 183e
000001a0: d4ba 91bc aa1d 603e 8383 333e 9401 803e
000001b0: 4d58 80bd b135 b83d a72c dfbd 6cea dc3d
000001c0: 0572 1abc a699 c9bd e42c d33d c65c b5bd
000001d0: d10d 3a3e 406d dabc c1e3 60be 23b0 983d
000001e0: 9d6e 743d bfd1 b4bd c3ea 7abe fd9f e43c
000001f0: 04f3 773e 80ae e03c 5dfc 983d 4d1a 383d
00000200: 903e 57be 13bb 34be 0a2b 3d3e d4cd 80be
00000210: 3216 c3bc 0fe0 74be 438e 41be bd17 66be
00000220: 55be 8dbd 427f 97be 1961 6c3e 92c5 9c3e
00000230: d336 8fbd b560 6dbe 5a6d 87be cb4b 7d3e
00000240: 1145 14be 04b4 8dbe fe9a a53d a3ca 4f3e
00000250: b07d 6abe ae36 65bd a63a 573e 01cf 1e3e
00000260: 8a7f 45be 9d8d d8bd 7d2f 863d 8db3 563d
00000270: e111 8bbe 2fbb d4bd d9ba 433e 849f f83d
00000280: 3251 d13d 188a d83d 4618 f5bd 7cb5 92be
00000290: 3651 8ebe 6a61 1cbd f2f2 f8bd dc36 c5bc
000002a0: c839 75bd c698 89bd 8cb3 87be 609e 9bbd
000002b0: 58fe 533e c56a d1bd e224 3c3d 22e7 1c3e
000002c0: b440 f0bd c38c 8bbe d1d6 d6bd 33cd 1d3e
000002d0: a72e 923e f58e 6cbe 9d9f 163e b42e 35be
000002e0: 9236 fdbc 2267 91bd 7847 fc3d a326 16be
000002f0: c393 953e 3bd1 8cbe f5eb e43d bdd5 703e
00000300: 6c1e 4f3e 484e 533c 19d7 82be cec9 0fbe
00000310: 5f80 6ebe f2b7 0ebe c266 113e 57dd 553e
00000320: 592b 0a3e 8e16 96be f565 a1bd 7a70 61be
00000330: 988b 64be 9f3e 69bd 6db6 2cbd 4339 043e
00000340: 5747 c13d 5a00 113e ab3d 963e 3e23 853e
00000350: 1448 e4bd 4f17 783d 3ea4 94bd cfd0 02bd
00000360: 21da 5b3c 848d 403e 62b7 a9bd 955b 663e
00000370: 60d2 873b c51c cf3d 83d6 bebd 13f7 913d
00000380: 1cef 4abd 1f11 c9ba f692 30be 6454 883d
00000390: bc24 413e 675a 15bc 7afe 193e fa22 cc3d
000003a0: 20c2 57be cdfc 67be 4d19 9d3c 9eb1 d23d
000003b0: edb3 883e d9d7 89bd 50cb 65be a313 89be
000003c0: fb9f f13d 44eb 5ebe 866a 8e3e 6bbb 643e
000003d0: 3fe2 e9bd fd47 873e 3471 96bd 67ab b6bd
000003e0: 0169 74be c3d1 f9bd e2b1 3d3e f298 883d
000003f0: 7748 aa3d 9868 f0bb 31ea e03d 8417 d03d
0.17042707 -0.27270976 -0.21042413 0.045352407 -0.13738054 -0.12181125 0.17606294 0.26339012
0.06965677 0.15444958 -0.21964069 -0.1779271 -0.18196927 -0.1524647 0.22663695 0.095846616
-0.004945275 0.18900125 -0.22926153 -0.07813842 0.032496724 0.016528033 -0.22679563 -0.07844895
-0.08294354 0.13868599 -0.16024548 -0.018267697 -0.2957919 -0.0744923 0.08418675 0.282763
0.0928069 0.2742256 0.12003339 0.13879924 -0.11524648 -0.09248127 0.12526828 0.055829134
0.12198351 0.16245413 0.04343205 0.30149877 -0.13803388 -0.28015035 0.10875486 -0.26020345
-0.2890385 -0.11363621 -0.2570564 0.16398743 -0.13752669 0.23181719 0.07197945 0.18592168
-0.15892781 0.25868756 -0.21316199 0.10374894 0.20773196 -0.08144312 0.20339248 -0.2136467
0.101871744 -0.25137308 0.012347414 -0.052843735 -0.02464629 0.21398321 0.20791969 0.2736677
-0.18883356 0.2351065 -0.22050264 0.28035483 -0.080606535 0.10795831 0.2363458 0.023713361
0.011267743 -0.050257668 -0.06818414 -0.07737297 0.031567834 -0.2311876 -0.09360507 0.02729242
0.2102274 0.12831725 -0.14677674 -0.10074716 0.0072653955 0.050435837 -0.03592764 0.14560507
-0.07566964 0.047120243 -0.16950725 -0.063002326 0.2739624 0.13938777 0.29794565 0.14923474
-0.017789282 0.21886316 0.17530636 0.25001204 -0.06266842 0.08994616 -0.10897189 0.107869
-0.009426598 -0.09843759 0.103112966 -0.08855586 0.18169333 -0.026663423 -0.21961881 0.074554704
0.0596758 -0.088290684 -0.24503617 0.02790832 0.24213797 0.027426958 0.074700095 0.044946957
-0.2101996 -0.17649488 0.1847345 -0.25157034 -0.023814294 -0.23913597 -0.18901925 -0.22469993
-0.069210686 -0.29589278 0.23083915 0.30619484 -0.06992879 -0.23181422 -0.26450616 0.24735944
-0.14479472 -0.27676404 0.08086203 0.20292144 -0.22899508 -0.05596035 0.21018466 0.15508653
-0.19286934 -0.105738856 0.065520264 0.052417327 -0.27162078 -0.10387265 0.19114245 0.121398
0.10220565 0.10573214 -0.119675204 -0.28654087 -0.27796334 -0.03817884 -0.12155713 -0.02407401
-0.059869558 -0.06718592 -0.2650417 -0.07598567 0.20702493 -0.10225443 0.04593361 0.15322545
-0.11731091 -0.2725583 -0.10490192 0.15410309 0.28551218 -0.23101409 0.14709325 -0.17693597
-0.03090981 -0.07099749 0.12318319 -0.14663176 0.29214296 -0.2750338 0.11177818 0.23519035
0.20226449 0.012897082 -0.2555473 -0.14041826 -0.23291157 -0.13937357 0.14199355 0.20885216
0.13493098 -0.29314083 -0.07880775 -0.22015563 -0.22318876 -0.056944486 -0.042166162 0.12912469
0.09437435 0.1416029 0.29343924 0.2600345 -0.1114656 0.060569104 -0.07257889 -0.031937417
0.013418705 0.18803984 -0.082869306 0.22495873 0.0041449517 0.10112909 -0.093182586 0.07127204
-0.04954444 -0.0015340185 -0.17243561 0.06656721 0.1886167 -0.009115792 0.15038481 0.09967609
-0.21070147 -0.2265503 0.019177103 0.10287784 0.26699772 -0.06730623 -0.22440839 -0.26772794
0.11798092 -0.21769434 0.27815646 0.2233712 -0.11420106 0.2642211 -0.073458105 -0.08919411
-0.23868181 -0.12198212 0.18524888 0.06669797 0.08314603 -0.0073366873 0.109821685 0.10160735

sequential/dense_1/MatMul f4 [32, 64]
00000000: 750d d3bd e4f7 f63d 76a6 83be ae34 7abd
00000010: 3633 443e 2252 773e db4b 6c3e 688f 153e
00000020: b1da 273e 81cf 043d a6e0 4ebd fa2e 33bd
00000030: aba7 4ebd 4c45 913d fef4 063e 0078 42be
00000040: 79ac 953d 983f c9bd b549 893c 667d 8b3d
00000050: 760c d7bc 58ab 453e bd59 40be 1375 46be
00000060: f285 b2bd 872e 803e d890 74bd 428e 293e
00000070: 5f3e 80be 329a 31be 08e7 fabd c052 173e
00000080: 0eb8 24be 98c0 963d c185 743e 82b1 503d
00000090: d187 263e 18be 5a3d 4608 f1bd 8e5f 1cbd
000000a0: 5ec5 a03d bf68 5cbe 967a 2b3e 66e8 673e
000000b0: dfc1 5e3e 046f 07be 5682 43bd 3218 f73d
000000c0: 8cc7 673e 126d cb3d 9445 e93d db42 0e3d
000000d0: 9a21 113e 6e51 53be 3759 4dbe 54f1 1a3e
000000e0: 32a1 83bd b97e 363e fbcc 00bd 3c57 6a3e
000000f0: d189 3ebe 81bd 60be a3c7 423e 61f6 803e
00000100: f03e 1a3e 40a4 4b3c 60f5 013d b801 edbd
00000110: a87e c53d c02e 3ebd 6813 2a3e 3c47 5dbe
00000120: 1082 26bd 48d4 ab3d d07e d3bd b0b8 2cbe
00000130: 80b9 6b3d 38a4 a1bd 0060 0cb9 9870 5abe
00000140: 20f4 b63c a499 30be e04f 633d 80fc efbd
00000150: 4464 05be c0e8 70be 5cf7 60be 90bb 5f3e
00000160: 4860 dabd acdd 49be c867 bd3d 90fc 1bbd
00000170: 08b8 743e d868 fe3d d842 6c3e e0be 41bd
00000180: a03c 34bd 00fb a73b 78cf ae3d b05b 3e3e
00000190: 700f 8f3d d034 55bd 10da fa3d 40f9 96bd
000001a0: c040 813c e08a d9bd 8842 d03d 5c0a 21be
000001b0: 1c71 2e3e 1466 153e 20e3 d23c ec29 2abe
000001c0: e089 613d 348c 0abe 8cb8 283e d43a 343e
000001d0: 905c c63d e00b 073e 00c6 203b 786f bfbd
000001e0: e4d4 10be c8c9 a43d 1088 6d3e 8032 f9bd
000001f0: a032 73be 40be 34bd 006b 193d 1019 173e
00000200: c429 6abe 8add ef3d d974 073e 2cf1 b33c
00000210: 5b29 6e3e 7e00 5f3e fa89 87bd f787 41be
00000220: 298f 083d d45c 203e d079 cbbc 7aff d0bd
00000230: 3fe7 60be 97ea bcbd 7082 5dbe 0883 2b3e
00000240: d428 233e 019d d4bd dc52 98bd 41cb 6cbe
00000250: ee08 0a3e d9bd d03d c8f9 65be ac16 12be
00000260: 44ac 1dbe fd1e 243e 5cad 403e f4bf 90bd
00000270: 5652 76bd abe9 013e aa73 563d 5822 df3d
00000280: 1bbf f5bd 4e35 71be 16f7 40bc c602 2c3e
00000290: 544a 0cbd e8ac 3fbe 09fc 09be 3736 24be
000002a0: 19c9 083e 0225 79be 5af7 3fbc 6d51 32be
000002b0: 1b55 1e3e 6b1c 453e 1e30 c2bc d5c9 ee3d
000002c0: 54a6 14be a41b 2fbe 9917 163e d8a4 f1bb
000002d0: 7eae ed3d ee83 f43d 24b2 1f3e 566c 3dbe
000002e0: 4035 28be 5476 1c3e 24f6 6f3e 39e4 1bbe
000002f0: 6569 5abe ef05 8b3d a467 f0bc d4cc 2e3e
00000300: edcc 25bc bfa0 203e ba0c 6c3c 25c2 8cbd
00000310: e9a1 1f3e dd60 563d 66ce 49bc f763 5b3e
00000320: 5234 bbbd 146f 1f3e 458f 353e c982 2abe
00000330: f60f b53d 29c8 b43d 8512 ee3d 3c5d b43d
00000340: d9b7 f03d 4df8 433e 65eb b2bc 8fea 64be
00000350: bb2d d03d 1f52 acbc a4a8 e2bd c4c8 873e
00000360: ca02 6a3e 6a8f 803e f122 803e d448 1f3e
00000370: fc7c 21bc 4376 943d 1b86 1d3e 74d9 71bd
00000380: 2c4f f9bb 1e11 103e f9e8 823e 26c3 223e
00000390: 0ac9 113e 63d8 043e 8f26 593e 1e95 3bbe
000003a0: 82f4 a0bc 7650 323e da04 033e 9bb3 4fbe
000003b0: dfad 64be 2626 34be 268d 623e 837b 8b3c
000003c0: 483c 75bd bf87 413e faa8 7cbe a60d 4d3e
000003d0: d2e0 1cbe 0ba5 083d b998 f2bd 53b1 853e
000003e0: e371 85bd 4d00 20bc 74f9 773b 08ad 70be
000003f0: ef66 11be fea2 343e c7a4 56be 6de1 58be
-0.10305301 0.12059 -0.25712937 -0.061085396 0.1916016 0.24152425 0.23075812 0.14605486
0.16392018 0.032424454 -0.05050721 -0.043745972 -0.05045287 0.070932955 0.13179395 -0.18991089
0.07308287 -0.09826583 0.016758779 0.06811027 -0.026251059 0.19303644 -0.18784232 -0.19380598
-0.08716954 0.25035498 -0.059708446 0.16558173 -0.25047585 -0.17343977 -0.12251097 0.1477766
-0.16085836 0.07360953 0.23879148 0.050950535 0.16262747 0.053403944 -0.11769156 -0.038177066
0.07850145 -0.21524332 0.16745982 0.22647247 0.21753643 -0.13225943 -0.04773172 0.12065162
0.22634715 0.09932913 0.11390224 0.034731727 0.14172974 -0.20636532 -0.20053564 0.15131122
-0.0642723 0.17821778 -0.031445485 0.2288484 -0.1860726 -0.2194729 0.19021468 0.25187972
0.15063071 0.012429297 0.03172815 -0.115725935 0.096432984 -0.046431303 0.16608965 -0.21609205
-0.04065138 0.08390099 -0.10326922 -0.16867328 0.057549953 -0.0789265 -0.00013387203 -0.21332014
0.022333205 -0.17246109 0.055496097 -0.117180824 -0.1302653 -0.23526287 -0.2196936 0.21848893
-0.106628954 -0.19713467 0.0924831 -0.03808266 0.23898327 0.12422341 0.23072374 -0.047301173
-0.04400313 0.005126357 0.08535665 0.18589664 0.06985366 -0.05205232 0.12248623 -0.073717594
0.015777946 -0.106221914 0.1016894 -0.15726608 0.17035335 0.14589721 0.025743067 -0.16617554
0.05506313 -0.13530046 0.16476649 0.17600566 0.09685624 0.13188124 0.002453208 -0.09347433
-0.14143711 0.08046299 0.23196435 -0.12167835 -0.2374978 -0.04412675 0.03745556 0.14755654
-0.22867495 0.11712177 0.13228168 0.021965586 0.23257963 0.21777532 -0.06618114 -0.18899523
0.033339653 0.15660411 -0.024838358 -0.10204978 -0.21963213 -0.09224432 -0.21631789 0.16749203
0.15933543 -0.103815086 -0.07437679 -0.2312441 0.13479969 0.101924606 -0.22458565 -0.14266461
-0.15397745 0.16027446 0.18816131 -0.07067862 -0.060137115 0.12686794 0.0523564 0.108952224
-0.11999341 -0.2355549 -0.01177766 0.16797933 -0.034250572 -0.18718302 -0.1347505 -0.16036306
0.13357963 -0.24330524 -0.011716688 -0.17413874 0.15462153 0.19249122 -0.023704585 0.1165959
-0.14516574 -0.17100388 0.1465744 -0.0073743872 0.11605547 0.11939226 0.15595299 -0.18498358
-0.16426563 0.15279514 0.23433739 -0.15223779 -0.21329267 0.06788241 -0.029346295 0.17070323
-0.010119659 0.1568632 0.014407331 -0.06872968 0.15589108 0.05233847 -0.012317276 0.21424852
-0.09140839 0.15569717 0.17730434 -0.16651453 0.08840935 0.0882724 0.11624626 0.088068455
0.11753816 0.19137688 -0.02184076 -0.22355102 0.101649724 -0.021035252 -0.11067322 0.2652036
0.22852626 0.25109416 0.25026658 0.15555125 -0.009856459 0.07249119 0.15383188 -0.05904527
-0.007608315 0.1406903 0.2556837 0.15894756 0.14236847 0.1297317 0.21206115 -0.18318602
-0.01964784 0.17413506 0.1279482 -0.20283358 -0.22331952 -0.17592677 0.22124156 0.017026668
-0.05987194 0.1889944 -0.24673834 0.20024738 -0.15320137 0.033360522 -0.11845536 0.2611185
-0.06515863 -0.009765697 0.0037837895 -0.23503506 -0.14199422 0.17640302 -0.20961295 -0.21179743

sequential/dense_2/MatMul f4 [16, 32]
00000000: 54fb bd3d fd4c a63e 23c1 71be f78d f23d
00000010: 3fc7 9f3e 2172 5b3e e717 b43e 7387 d6bb
00000020: fd4e 06be d0cc a3be 23eb a8be f94a 7e3d
00000030: ab57 abbe 67fe acbe 22ea 8abe 4968 9a3b
00000040: 47e8 b5be 912f 103e 207f 183e 583b b1be
00000050: 20d1 e0bd b848 cbbb ca9e 253e af14 8a3d
00000060: 104a 2cbe f922 19be 918e 893e 706c 9a3d
00000070: 8f72 a33e 0248 7cbe 6a35 a5be e40e 08bd
00000080: 1302 0ebe 0972 a83e 597a 1f3d 2413 c43d
00000090: 6cb1 f8bd 8835 ad3e 65fc 8e3e a1b0 64be
000000a0: 87da 42be a46c 203e 2db7 743e f654 6bbe
000000b0: 80ef 9fbb 6d34 763e 62d0 743e cc92 a6be
000000c0: 2326 68be 1c22 14be 17c3 763e bdea 9bbe
000000d0: a6bb 24be cc48 063e a44b 24be aff4 a3be
000000e0: 4b41 8bbc f6b5 7abe d491 6abe 7051 e63d
000000f0: f833 773d 1351 b3bd dbf7 313e 3185 973d
00000100: 00b8 cf3d c826 99be 8770 803e a84a afbe
00000110: 7dd2 54be 0b1e fabd 7fce ad3e 9e65 52be
00000120: d8af f6bc 22fb a4bd c191 efbc c8f9 cd3b
00000130: de2a 253e 3a76 2b3e ee12 653e 5d73 183d
00000140: 5825 823e 8cff 9fbc c451 183e 029b a5be
00000150: 2322 95bd 5e99 823e 586b 333d e9bd 67be
00000160: 959d 083e 8460 863d 112b 1cbe 3920 993e
00000170: 206a 77be 202d 273e d2c3 9b3e fb3a abbe
00000180: e5f8 e13d 307c 973c f37b ef3c 0b93 c9be
00000190: f2b0 1dbe 2902 d73d 92e2 3b3e 82f5 62be
000001a0: f84e a5be fb63 d23d 8c29 12bd cd6f 893e
000001b0: 70f7 713d 4220 443d c007 9fbe 7922 2a3e
000001c0: 6356 f6bc f950 ac3e b1b0 6d3e 48c9 8a3d
000001d0: a6bd 0abd ca4c 3d3e aabc 6cbe fa96 16be
000001e0: 6860 a93e 8828 d53d 58da 643d be43 5d3e
000001f0: 3012 26be 65f4 943e b8bf fabd 3c8c 5ebe
00000200: 5542 75bd 558f 2fbe c271 05be 2105 ad3e
00000210: 6485 87bd e46d 17be 4029 a83b b920 d8bd
00000220: 0217 2a3d caaf 6e3e 55da 87be 415a 483e
00000230: 2e34 233e b885 6e3e 209c 2bbe fa04 3c3e
00000240: 1164 31be a1a3 2abe 520f d43b 6afa 703e
00000250: ec12 13be 8698 293e c575 a33e 3079 a8bd
00000260: c3c1 b63c 95c3 52be 46fe 3e3e d879 cfbd
00000270: 83b7 103e 3f27 5abe d9cd 42bd 5697 8e3e
00000280: 73fa 843e 10b5 b83d 293d 1e3e 976d a13e
00000290: ce6d 7b3e 40f0 83bd 6073 85bd 9421 55be
000002a0: cbc6 22be c24e 4dbe 8243 b13e 7492 86be
000002b0: fc84 90be 6ed9 5a3e 5392 a43e ffdc cfbc
000002c0: f103 503e 99be 0ebe 6761 ae3e 916a 0ebe
000002d0: e910 333e 9660 0abe 04dc fd3d dc72 4a3c
000002e0: cf49 dc3d f074 7cbd fe49 0dbe 3195 88be
000002f0: 48a9 a83e e4be 13be 3033 9d3e 92ca 843e
00000300: b295 0cbd a02c 72be 9048 c93d e5c3 a23c
00000310: 705d d93c 43bc 47be f901 ac3e b3ef e93d
00000320: 5193 403e 7c96 9fbe c391 523d 2df5 f93d
00000330: 62db 95be b696 04be 7472 ccbd 2d02 be3c
00000340: daca a83e 25b5 64be c4be 37bd 4ede 7e3e
00000350: c61e 173e 7bf5 d73d e6d1 07be 7263 2cbe
00000360: a199 97be ffcd ad3e d0e4 c33d b0f1 5e3d
00000370: 0bce 2b3e 3fb1 a13d 19b6 3bbe 7470 a83e
00000380: 6b8b 41be 907b f1bd 4199 2a3e a2d8 913d
00000390: 346f ae3d c77a 55bd acd5 58be 56eb 733b
000003a0: 6208 de3d fe79 34be 73b6 3ebd 302b a03c
000003b0: 964a 3c3e a59b bdbd 00bb 43bc e2e1 b03e
000003c0: caff f9bd 4cc8 9a3e 3eb0 9abc c588 0fbe
000003d0: 767b fabd 5d08 f53d 9430 d53d d8e2 813e
000003e0: 8f37 a23e 3942 03be 7086 9bbd ed7d 3abe
000003f0: dbc4 b53e e62d 83bb f439 1dbe 70fd 713e
0.09276453 0.32480612 -0.23608832 0.11843484 0.312067 0.21430255 0.35174486 -0.0065469085
-0.13116069 -0.31992197 -0.32991895 0.06208322 -0.33465323 -0.33787844 -0.27131754 0.004712139
-0.35528776 0.14080645 0.14892244 -0.34615588 -0.109773874 -0.006203737 0.16173854 0.06742226
-0.16825128 -0.14954747 0.26866582 0.07540214 0.3192334 -0.24636844 -0.32267314 -0.033217326
-0.13867979 0.32899502 0.03893504 0.09573963 -0.121432155 0.33829904 0.27926937 -0.22333004
-0.19028674 0.15666443 0.23898001 -0.22981629 -0.0048808455 0.24043436 0.23907617 -0.32533872
-0.22670798 -0.14466137 0.24097858 -0.3045253 -0.16087207 0.13113707 -0.1604448 -0.32022616
-0.016998908 -0.24483475 -0.22907192 0.11246002 0.060352296 -0.08755698 0.17379706 0.07398451
0.10142517 -0.299124 0.25085852 -0.34236646 -0.2078342 -0.122127615 0.33946607 -0.20546576
-0.030113146 -0.08055712 -0.029244306 0.0062858798 0.16129634 0.16744319 0.22370502 0.037219394
0.25419116 -0.019531034 0.14874941 -0.32344824 -0.07281902 0.25507635 0.043803543 -0.22631039
0.13341363 0.06561378 -0.15250804 0.29907396 -0.24161577 0.16325808 0.30422837 -0.33443436
0.11033801 0.018491834 0.029233908 -0.39369997 -0.1539953 0.10498459 0.18348148 -0.22163966
-0.3228681 0.10272976 -0.035684153 0.2684311 0.059073865 0.047882326 -0.310606 0.16614713
-0.03007049 0.33655527 0.23211934 0.067766726 -0.03387227 0.18486324 -0.23118845 -0.1470603
0.33081365 0.10408121 0.05587229 0.21607873 -0.16217875 0.29092708 -0.12243599 -0.21733183
-0.059877712 -0.1714452 -0.13031676 0.33792976 -0.06617239 -0.14788014 0.0051318705 -0.10553116
0.04152585 0.23309246 -0.26533762 0.19565679 0.15937874 0.23293197 -0.16758776 0.18361273
-0.17323329 -0.16663982 0.006471553 0.23533025 -0.14362687 0.1656209 0.3192579 -0.0822624
0.02230919 -0.20582421 0.18651685 -0.10130662 0.14132504 -0.21304034 -0.047559593 0.27849835
0.25972328 0.0901891 0.15453018 0.31528923 0.24553606 -0.064423084 -0.06516147 -0.2081359
-0.15896146 -0.20049575 0.34621817 -0.2628361 -0.2822646 0.21372005 0.32142887 -0.025373934
0.20314004 -0.13939895 0.34058687 -0.1390784 0.1748692 -0.13513407 0.1239548 0.012356486
0.10756265 -0.061634958 -0.13797757 -0.26676324 0.3294165 -0.14428288 0.30703115 0.259358
-0.034322448 -0.23649836 0.09828293 0.0198688 0.026533812 -0.1950541 0.33595255 0.11422672
0.18806197 -0.31169498 0.05140854 0.12204967 -0.29268938 -0.12948117 -0.09982768 0.023194397
0.32967263 -0.22334726 -0.044859663 0.2488949 0.14757833 0.105448686 -0.13263664 -0.1683481
-0.29609397 0.33946225 0.09565127 0.05442971 0.16777818 0.07895135 -0.18331183 0.32898295
-0.1890084 -0.11791146 0.16660024 0.071213976 0.08517304 -0.052119043 -0.2117526 0.0037219129
0.10841443 -0.17624661 -0.046560716 0.019551843 0.18387827 -0.092582025 -0.01194644 0.34547335
-0.12206991 0.3023094 -0.018882867 -0.14017017 -0.122305796 0.11964486 0.10409656 0.2536838
0.31683013 -0.1281823 -0.07594001 -0.182121 0.3550175 -0.0040032743 -0.15354139 0.23631835

sequential/dense_3/MatMul f4 [1, 16]
00000000: 15f9 84be 770d bc3e 21dd 0fbf 8ce3 95bd
00000010: 1267 8d3d 584a 183f 214c 31bd ae4f 113e
00000020: 8ed0 a1be 7717 65bd 70c7 b83e 0832 8b3d
00000030: 36e3 8ebe 536c 973e 9e06 19bf 40b6 fdbe
-0.25971285 0.36729023 -0.5619679 -0.07318792 0.06904425 0.5948844 -0.043285493 0.14190552
-0.31604427 -0.05593058 0.3608966 0.06796652 -0.27907723 0.29574832 -0.5977572 -0.49553108
