ML_model/mejaku_model_v1.tflite (tflite, 13724 bytes, 7 tensors)

dense_2/bias f4 [16]
0	0xbd99f73b	-0.075178586
1	0xbd8754cb	-0.0660797
2	0x3d970c36	0.07375376
3	0x3d83184b	0.06401118
4	0xbd8b5b25	-0.06804494
5	0x3d754248	0.059877664
6	0xbd8546f2	-0.06507672
7	0x3d8b644c	0.068062395
8	0xbd8a0b55	-0.06740443
9	0x3d910e62	0.070828214
10	0xbda48101	-0.08032418
11	0xbd83295e	-0.064043745
12	0x3d850f91	0.0649711
13	0xbd7e2acc	-0.062052533
14	0xbd978aef	-0.07399546
15	0x3d8560e1	0.06512619

dense_1/bias f4 [32]
0	0xbc51cf1d	-0.012805727
1	0xba11b894	-0.00055588153
2	0x3d9f7d13	0.07787528
3	0xbc904ce3	-0.017614787
4	0xba091126	-0.00052286906
5	0x3de3ffc9	0.111327715
6	0x00000000	0.0
7	0x3da53720	0.08067155
8	0x3db7d05b	0.089752875
9	0xbc8f9801	-0.017528536
10	0xbbc1cea7	-0.0059145275
11	0x3db577bd	0.08860729
12	0xbc18fcb8	-0.009337597
13	0x3dc5379b	0.096297465
14	0xbcfd72d6	-0.030938547
15	0x3dd4cfd6	0.10391204
16	0x3dba9ccd	0.091119386
17	0x3dc22776	0.09480183
18	0xbc0b9824	-0.00852016
19	0x00000000	0.0
20	0x3db77aba	0.08958955
21	0x3dc095ae	0.09403549
22	0x3dc18241	0.09448672
23	0x3db266fd	0.0871105
24	0xbc56cb80	-0.013110042
25	0x3ddbaab5	0.10725919
26	0x3dbbf466	0.09177475
27	0x00000000	0.0
28	0x3dd17e5c	0.10229179
29	0xbc40026e	-0.011719329
30	0x3dde90d6	0.10867469
31	0x3de1bfb6	0.11022894

dense/bias f4 [64]
0	0xbdd782f7	-0.105230264
1	0xbdb2b537	-0.0872597
2	0xbdce4cfb	-0.100732766
3	0xbde4f9b1	-0.11180437
4	0x3df8e505	0.12153057
5	0x3ddb10cc	0.10696563
6	0xbdd3004f	-0.10302793
7	0x3ded6933	0.11592331
8	0xbd4c79cc	-0.049920842
9	0xbdee2245	-0.1162763
10	0xbd57a741	-0.05264974
11	0xbdec28aa	-0.115311936
12	0xbddc2c96	-0.107506916
13	0x3dcee7d1	0.10102809
14	0xbddf39ac	-0.10899672
15	0xbd37e936	-0.04490014
16	0xbda2f88d	-0.079575635
17	0x3de0bff2	0.10974111
18	0x3daa22e3	0.08307435
19	0x3db1c4c6	0.0868011
20	0xbdd63eb4	-0.104611784
21	0xbdf07be0	-0.11742377
22	0x3de21558	0.11039227
23	0x3de798d3	0.11308446
24	0xbdd9c2db	-0.10632869
25	0xbddf04e5	-0.108896054
26	0xbdeb7c6b	-0.1149834
27	0x3dbad523	0.09122684
28	0xbde2e8a3	-0.11079528
29	0x3dd91b4d	0.1060091
30	0x3dd6d606	0.104900405
31	0x3ddf4b39	0.109030195
32	0x3dd4d8ea	0.103929356
33	0xbdf6e07d	-0.120545365
34	0x3dd55737	0.104170255
35	0xbd2ad85d	-0.041710246
36	0x3d9c5b74	0.07634631
37	0x3ddd8deb	0.10818084
38	0x3df19374	0.117957026
39	0x3de4dea7	0.1117528
40	0xbdcf064a	-0.101086214
41	0xbdd1e0cd	-0.102479555
42	0x3ddb2943	0.107012294
43	0xbd8a40db	-0.067506514
44	0xbdcf7c07	-0.10131078
45	0x3ddb19da	0.1069829
46	0x3dde76c7	0.10862499
47	0xbd2043d7	-0.039127197
48	0xbdcdaa0c	-0.100421995
49	0x3dcb8416	0.09937303
50	0x3da6c3bc	0.08142802
51	0x3dec3acd	0.11534653
52	0xbddc3ab8	-0.10753387
53	0xbddf3914	-0.10899559
54	0xbdf192aa	-0.11795552
55	0x3ce436e3	0.027858203
56	0x3dd68b49	0.10475785
57	0xbdc332a4	-0.09531143
58	0x3dee2587	0.116282515
59	0x3d86f6c7	0.06590038
60	0xbdd6d577	-0.10489934
61	0xbde0c54e	-0.10975133
62	0x3dae9bb9	0.085257955
63	0x3de35f4b	0.1110216

sequential/dense/MatMul f4 [64, 4]
0	0xbec7620b	-0.38941988
1	0xbeb4f811	-0.3534551
2	0xbe93fc71	-0.28903535
3	0x3dcd3224	0.10019329
4	0xbe5a6706	-0.21328363
5	0xbebab8ea	-0.36469203
6	0xbe9d25f8	-0.3069303
7	0xbe41154f	-0.18855785
8	0x3e43c60b	0.19118516
9	0xbe3a8e81	-0.18218423
10	0xbec14f2b	-0.37755713
11	0xbec2b3e1	-0.38027862
12	0xbe9e749f	-0.3094835
13	0xbebcb903	-0.36859903
14	0xbece2957	-0.40265915
15	0xbe1e2775	-0.15444739
16	0x3e83c983	0.2573968
17	0x3e16f2e5	0.14741094
18	0x3e21344d	0.15742607
19	0xbd44263b	-0.047888022
20	0x3e9e1422	0.30874735
21	0x3e15d56d	0.14632197
22	0x3d0704b8	0.032963485
23	0x3e8ca168	0.27466893
24	0xbc9109e1	-0.017704906
25	0xbe92268a	-0.28545028
26	0x3e0049ac	0.12528104
27	0xbd839c78	-0.064263284
28	0x3d4cc204	0.049989715
29	0xbcfbd83f	-0.030742763
30	0x3e4b9f16	0.19884905
31	0x3e13d395	0.14436181
32	0xbe82b04a	-0.25525123
33	0xbe17ba66	-0.14817199
34	0xbe84da26	-0.25947684
35	0x3e25f94c	0.1620838
36	0xbd0c5055	-0.034256298
37	0xbe2da964	-0.16959149
38	0x3e0f8035	0.14013751
39	0xbecce716	-0.40020055
40	0xbeac01ec	-0.33595216
41	0xbe63e050	-0.22253537
42	0xbe7d21e9	-0.24719967
43	0xbe3401cf	-0.17578815
44	0xbe6dd953	-0.23227434
45	0x3d611743	0.054953825
46	0xbeb076df	-0.3446569
47	0x3d3992ff	0.045306202
48	0xbeab3abe	-0.33443254
49	0x3dceed14	0.10103813
50	0x3dac1244	0.084019214
51	0xbe935384	-0.28774655
52	0x3deb85db	0.1150014
53	0x3e314aa1	0.17313625
54	0x3d0e17ef	0.034690794
55	0x3e5ac257	0.21363197
56	0x3d3cc3b9	0.046085093
57	0xbe2a800c	-0.16650409
58	0xbeaf35c0	-0.34220695
59	0xbcf7d570	-0.030253142
60	0xbe7ce30f	-0.24695991
61	0xbd9dc86f	-0.07704245
62	0xbe9f4f6e	-0.31115288
63	0xbd40733a	-0.04698489
64	0xbe05ea89	-0.1307775
65	0xbea62cb8	-0.32455993
66	0xbe86578b	-0.26238665
67	0xbe49f5d0	-0.19722676
68	0x3ec5b234	0.3861252
69	0xbca1495f	-0.019688306
70	0x3eacf796	0.33782643
71	0xbcc5634f	-0.024095206
72	0x3dd0e545	0.1019998
73	0xbe3b1841	-0.18270971
74	0x3e60fc1c	0.21971172
75	0x3e846ba4	0.25863373
76	0x3e40fffd	0.18847652
77	0x3e868c05	0.262787
78	0xbd82e5b2	-0.06391467
79	0x3e6304b2	0.2216976
80	0xbeae32b1	-0.3402305
81	0xbd491914	-0.049096182
82	0xbe641e98	-0.22277296
83	0xbec6381a	-0.38714677
84	0xbdd03370	-0.10166061
85	0xbdd0cfe6	-0.101959035
86	0xbe9bc056	-0.30420178
87	0xbec377d9	-0.38177374
88	0x3e1af971	0.15134217
89	0x3d450a3f	0.048105475
90	0x3db5fe94	0.088864475
91	0x3e9fe7c0	0.312315
92	0x3e1706c9	0.14748682
93	0x3e865466	0.26236266
94	0xbe0ac006	-0.13549814
95	0x3e88b23a	0.26698476
96	0xbe54085d	-0.20706315
97	0xbea2dd42	-0.3180943
98	0xbdf29818	-0.11845416
99	0xbeacecbe	-0.3377437
100	0xbeab5232	-0.33461148
101	0xbe18cf97	-0.14922939
102	0x3d7db384	0.061938778
103	0xbd68e82a	-0.056862034
104	0xbe823af1	-0.25435594
105	0xbe8980d8	-0.26856112
106	0xbe15d1a8	-0.14630759
107	0xbeb6de5d	-0.35716525
108	0x3e623fa0	0.22094584
109	0x3e2e4b0a	0.17020813
110	0x3d74f4f5	0.05980392
111	0x3cc23d61	0.023710908
112	0x3dfb60c3	0.12274315
113	0xbd7219ad	-0.059106518
114	0xbe52fe84	-0.20604903
115	0xbeba0139	-0.36329058
116	0x3e78dac5	0.24302204
117	0x3ea5fafd	0.3241805
118	0x3e506b6f	0.20353483
119	0x3e9a0b71	0.30086854
120	0x3d5c3909	0.05376533
121	0x3e95067d	0.29106513
122	0x3d13aa64	0.03605117
123	0x3ea2b456	0.3177821
124	0x3e423953	0.1896718
125	0x3ecdc828	0.4019177
126	0xbd9ae5e6	-0.07563381
127	0x3da01fc4	0.07818559
128	0x3ebe65d8	0.37187076
129	0x3e73dab8	0.23813903
130	0xbce728c3	-0.028217679
131	0x3e8e6bb0	0.27816534
132	0xbea6de87	-0.3259165
133	0xbe76b7b7	-0.24093519
134	0x3dde8f43	0.10867169
135	0xbe428815	-0.18997224
136	0x3ea96849	0.33087376
137	0x3ea86aff	0.32894132
138	0x3ea6f687	0.3260996
139	0x3e814755	0.25249735
140	0xbdd86439	-0.10565991
141	0xbd9be024	-0.07611111
142	0xbdc9163b	-0.09818693
143	0xbe8f19dd	-0.2794942
144	0x3c93fce0	0.018064916
145	0x3dbd79b9	0.092517324
146	0x3e93293f	0.28742406
147	0x3eb4eee5	0.35338512
148	0x3d4abdf1	0.04949755
149	0x3e4c24b3	0.19935875
150	0x3e823dff	0.25437924
151	0x3e29f5ff	0.16597746
152	0xbdb497e8	-0.08818036
153	0xbe01f147	-0.12689696
154	0x3e89b4e9	0.26895836
155	0x3ed26768	0.41094518
156	0x3ea07b0f	0.31343886
157	0xbe16ad46	-0.14714536
158	0x3e84a8f5	0.25910154
159	0xbdc4c293	-0.096074246
160	0xbea8f79b	-0.33001408
161	0xbd0d7819	-0.034538362
162	0xbe4a692d	-0.19766684
163	0xbeb83c67	-0.35983583
164	0xbe8b5b89	-0.27218273
165	0xbe9fd471	-0.31216767
166	0xbdc636b6	-0.09678404
167	0xbe74efc9	-0.23919596
168	0x3eac2ffb	0.33630356
169	0x3e502771	0.20327546
170	0x3e3ad44d	0.18245049
171	0x3eb25558	0.34830737
172	0xbea56646	-0.3230459
173	0xbe458cea	-0.19292036
174	0x3e1869f2	0.14884165
175	0xbe538061	-0.20654441
176	0xbe3d5883	-0.18490796
177	0xbd902233	-0.07037773
178	0x3d739b31	0.059474174
179	0xbe86fe55	-0.26365915
180	0x3e274612	0.16335323
181	0x3e8002c2	0.25002104
182	0x3e7cdae5	0.24692877
183	0x3e069117	0.13141285
184	0x3ea16e08	0.3152926
185	0xbe02362b	-0.12715976
186	0x3d71f361	0.059069995
187	0x3eb3ab23	0.35091504
188	0xbe59a0d6	-0.2125276
189	0xbe476691	-0.1947272
190	0x3da2b147	0.07943969
191	0xbe8b5f52	-0.2722116
192	0xbe2abda6	-0.16673908
193	0xbec56c1f	-0.38559052
194	0x3bac1432	0.005251431
195	0xbe3bc044	-0.18335062
196	0x3dbe8bbb	0.09303995
197	0x3e9427c4	0.2893659
198	0x3cc6cd47	0.024267806
199	0x3e9ad1c2	0.30238158
200	0xbe47004d	-0.19433708
201	0x3e7b0a4f	0.24515651
202	0x3eb55ffd	0.35424796
203	0x3e3d72c6	0.18500814
204	0x3eafe369	0.34353188
205	0x3e2f3aa2	0.1711221
206	0x3eadfb30	0.33980703
207	0x3d9969af	0.07490861
208	0xbeb1f433	-0.34756622
209	0xbea41ca4	-0.320531
210	0xbe23f84d	-0.16012688
211	0xbddf6c51	-0.109093316
212	0xbcb1529f	-0.021645842
213	0xbeca3e8f	-0.39500853
214	0xbe894f9b	-0.26818547
215	0xbda2c50d	-0.07947741
216	0x3e1cfcc4	0.15330797
217	0xbdb29d8d	-0.08721457
218	0xbdc05bf8	-0.09392542
219	0xbe922107	-0.28540823
220	0x3e6cc974	0.23123723
221	0xbe66c367	-0.22535478
222	0xbe7959a6	-0.24350604
223	0x3c8d135a	0.017221142
224	0x3eadb53a	0.33927327
225	0x3e369625	0.17830713
226	0x3eb20b64	0.34774315
227	0x3e91186c	0.28338945
228	0xbe497769	-0.19674458
229	0x3bef6742	0.0073060105
230	0xbeab424e	-0.33449024
231	0xbd70165a	-0.058615066
232	0x3e759d47	0.23985778
233	0x3e1ebd6e	0.15501949
234	0x3eab1ab4	0.3341881
235	0x3e4c203a	0.19934168
236	0x3df7531e	0.120764
237	0x3c4061a9	0.011742034
238	0x3dc70118	0.097170055
239	0x3eb99568	0.362468
240	0x3d6f8c86	0.058483623
241	0xbe92fbb2	-0.28707653
242	0xbe645852	-0.22299317
243	0x3e1f59c2	0.15561584
244	0xbebc83af	-0.36819217
245	0xbebc9226	-0.36830252
246	0x3d853651	0.06504501
247	0xbeab7c7e	-0.33493418
248	0x3e54ea01	0.2079239
249	0xbd9fffb1	-0.07812441
250	0x3e274621	0.16335346
251	0x3eb50dd3	0.3536211
252	0xbca8625b	-0.020554712
253	0x3e7dc77b	0.24783127
254	0x3e993e6f	0.29930446
255	0x3e0e7a46	0.13913831

sequential/dense_1/MatMul f4 [32, 64]
0	0xbd5148a0	-0.05109465
1	0x3db7354d	0.08945713
2	0xbe696522	-0.22792485
3	0x3da6badb	0.081411086
4	0x3d7e3a09	0.062067065
5	0xbdc07259	-0.0939681
6	0xbe70c8d1	-0.23514105
7	0x3e1f6faa	0.1556994
8	0x3cc0bdac	0.023527943
9	0xbd84f41a	-0.06491871
10	0x3d83b086	0.064301535
11	0xbe0cf3dd	-0.13764901
12	0x3da37f57	0.079832725
13	0x3cd5c1ad	0.026093328
14	0x3e305641	0.17220403
15	0xbdddc40a	-0.10828407
16	0x3e466d18	0.19377553
17	0xbe5e5dcd	-0.2171547
18	0xbe3f857e	-0.18703267
19	0x3de48dfe	0.11159895
20	0xbe37c445	-0.17945965
21	0xbe1ec533	-0.15504913
22	0x3e3aa8bb	0.18228428
23	0x3cd1da45	0.025616774
24	0x3e8205e5	0.25395122
25	0xbdfe92cf	-0.12430345
26	0x3dbe7e80	0.09301472
27	0x3da10f91	0.07864297
28	0x3e8cc571	0.27494386
29	0xbe110dc0	-0.14165401
30	0x3d58ffe4	0.05297841
31	0xbda87c5e	-0.08226846
32	0xbe4f5521	-0.20247318
33	0xbc70ce70	-0.014697656
34	0xbe3000e2	-0.17187837
35	0xbe156ecf	-0.14593051
36	0x3e435b3a	0.19077769
37	0xbe3005dd	-0.17189737
38	0xbe7ca839	-0.24673547
39	0x3dd8e86e	0.105912074
40	0x3d44d163	0.04805125
41	0x3e343ae6	0.17600593
42	0x3dcad3d4	0.09903684
43	0x3e403aaf	0.18772386
44	0x3bf2d393	0.0074104755
45	0x3e0238f4	0.12717038
46	0xbdbfb2f0	-0.093603015
47	0xbe1a9c3a	-0.15098658
48	0xbe1ffa0f	-0.15622734
49	0x3d9e2404	0.07721713
50	0x3e502514	0.20326644
51	0x3df0e5d0	0.11762583
52	0x3e047276	0.12934288
53	0x3e2c49cc	0.16825026
54	0xbe63f3ca	-0.22260967
55	0xbd7bdd55	-0.061490376
56	0x3e25834d	0.16163369
57	0xbe6cb959	-0.2311758
58	0x3e655152	0.22394302
59	0xbe6b236c	-0.22962731
60	0xbe10257f	-0.14076804
61	0xbdb27b2b	-0.08714899
62	0x3cd5b970	0.0260894
63	0xbdb6748c	-0.08908948
64	0x3e50413e	0.20337388
65	0xbe4b5cfe	-0.19859692
66	0xbe76982e	-0.2408149
67	0x3d816615	0.06318299
68	0x3bc2398b	0.00592727
69	0x3ddc1b33	0.10747375
70	0xbe76ec3e	-0.24113557
71	0xbc66c9fc	-0.014086243
72	0xbdfbc50d	-0.12293444
73	0x3e1dd172	0.15411928
74	0x3d7afef3	0.061278295
75	0xbe113846	-0.14181623
76	0x3e4d362a	0.20040193
77	0x3de728f3	0.11287107
78	0x3e269592	0.16267994
79	0xbc4509fc	-0.012026306
80	0x3e642d56	0.2228292
81	0x3e6e13ea	0.23249784
82	0x3c41b604	0.011823181
83	0x3e39a7ee	0.18130466
84	0x3e4439a6	0.19162616
85	0x3e76015e	0.24023959
86	0xbe234d9e	-0.15947577
87	0xbe2dc34a	-0.16969028
88	0x3d8184f5	0.06324188
89	0xbe19a50e	-0.1500437
90	0xbdd7983b	-0.105270825
91	0x3c42437c	0.01185691
92	0xbceffbe7	-0.029294921
93	0x3e16b87a	0.1471881
94	0xbc1951fc	-0.0093579255
95	0x3e364bfe	0.17802426
96	0x3e026616	0.12734255
97	0x3cd0f5d9	0.025507854
98	0xbe2813fa	-0.1641387
99	0x3e0ec88a	0.13943687
100	0x3dc91a4d	0.098194696
101	0xbd0b9c6d	-0.034084726
102	0x3d614553	0.054997753
103	0x3e1afbfe	0.1513519
104	0x3dd05bcd	0.101737596
105	0x3d10394d	0.035210896
106	0x3db204e3	0.08692338
107	0xbe4324b6	-0.19056973
108	0xbdcb61db	-0.09930774
109	0x3ceaf687	0.028682007
110	0x3d4b9443	0.04970194
111	0x3dc49cfb	0.09600254
112	0x3e73d6b2	0.23812369
113	0xbe629e52	-0.22130707
114	0x3da8f285	0.08249382
115	0xbc1b88bc	-0.009493049
116	0x3d904045	0.070435084
117	0xbdf07a1b	-0.1174204
118	0xbcafd1e7	-0.021462394
119	0x3c943fe7	0.018096877
120	0xbe2397da	-0.15975896
121	0x3e7e7186	0.24847993
122	0xbe6f51be	-0.23371026
123	0xbd59e3f3	-0.053195905
124	0x3e6365b2	0.22206762
125	0xbe12d206	-0.1433793
126	0x3e6f3942	0.23361686
127	0x3c6f57bb	0.014608319
128	0x3d69d2d8	0.057085842
129	0xbd40451e	-0.046940915
130	0xbe445b3c	-0.19175428
131	0xbea4ab43	-0.32161912
132	0x3d268048	0.040649682
133	0x3cf734b5	0.0301765
134	0xbe4f58fe	-0.20248792
135	0xbdfb9ab0	-0.12285364
136	0xbea60ff7	-0.32434055
137	0xbe278550	-0.16359448
138	0x3d80748f	0.06272232
139	0xbeb3acf8	-0.35092902
140	0xbe15bf4f	-0.1462376
141	0x3e07998a	0.13242164
142	0xbeb34031	-0.35009912
143	0xbea0cd00	-0.31406403
144	0xbc848ec8	-0.016181365
145	0x3e942dea	0.2894128
146	0x3e5cc2af	0.21558641
147	0x3c1df396	0.009640595
148	0xbea9ec59	-0.3318813
149	0xbea5d4a6	-0.323888
150	0x3ea71546	0.32633418
151	0x3e54eaf2	0.2079275
152	0xbe3e0eba	-0.18560305
153	0xbe2d2970	-0.16910338
154	0xbe1b77ff	-0.15182494
155	0xbd1c33d7	-0.038135376
156	0xbeb53461	-0.35391524
157	0x3ea4e8d4	0.32208884
158	0x3ea948be	0.3306331
159	0x3e9d163b	0.30681023
160	0x3e83c357	0.2573497
161	0xbe0570e0	-0.1303134
162	0x3bdbf620	0.00671269
163	0xbe71dd68	-0.23619616
164	0x3e184a46	0.14872083
165	0x3ea97e33	0.33104095
166	0xbdd99f37	-0.10626071
167	0x3e85533b	0.26040062
168	0xbe5ce410	-0.21571374
169	0xbea96d72	-0.33091313
170	0x3e8e0463	0.27737722
171	0xbd6775cf	-0.056508835
172	0xbea120c2	-0.31470305
173	0x3e794cc6	0.24345693
174	0x3e956adf	0.291831
175	0xbe76b2f4	-0.24091703
176	0xbe9f30bc	-0.3109187
177	0x3e8535cc	0.26017606
178	0xbd1d0549	-0.03833512
179	0x3eacc679	0.33745173
180	0xbe95f035	-0.29284826
181	0x3cef6971	0.029225083
182	0xbd55daa4	-0.052210465
183	0xbd52fbe1	-0.05150974
184	0x3e45579e	0.19271705
185	0xbe28fd86	-0.16502962
186	0x3e0c6eb3	0.13714103
187	0xbd88eee8	-0.06686193
188	0xbe664746	-0.22488126
189	0xbd36234f	-0.044467267
190	0x3df6c82c	0.120498985
191	0xbda74208	-0.08166891
192	0xbc2beea1	-0.010493905
193	0xbe160f94	-0.1465438
194	0x3d2ede4e	0.042692475
195	0x3d95e47f	0.07318973
196	0x3e1d1cc1	0.15343
197	0xbdffb89a	-0.12486382
198	0x3e5be578	0.21474254
199	0xbe58ca9f	-0.21171044
200	0x3d9b21f1	0.07574833
201	0xbd47f549	-0.048817907
202	0xbe6f675b	-0.2337927
203	0x3e778a88	0.24173939
204	0xbe16579c	-0.14681858
205	0x3e5ffd25	0.2187391
206	0x3e22d7e5	0.1590267
207	0x3e52a578	0.20570934
208	0xbe415c45	-0.18882854
209	0x3e55668c	0.208399
210	0x3e63bcb7	0.22239958
211	0x3d97579d	0.07389758
212	0xbe0356d3	-0.1282609
213	0x3e77616c	0.24158257
214	0x3ba78343	0.005112083
215	0x3e425556	0.18977866
216	0xbe216c64	-0.15764004
217	0xbd3ce33f	-0.046115156
218	0x3e2603b3	0.16212349
219	0xbc535619	-0.012898945
220	0x3df684fa	0.12037082
221	0x3da3f70c	0.08006105
222	0xbe5fca18	-0.21854436
223	0x3e433c02	0.1906586
224	0x3e035c7d	0.1282825
225	0xbd16f820	-0.036857724
226	0xbdef35d1	-0.116801865
227	0xbe032eaf	-0.12810777
228	0xbd076621	-0.033056382
229	0x3d845ab0	0.0646261
230	0xbde67cad	-0.11254249
231	0x3e22706b	0.15863197
232	0x3d4e5e6e	0.050383024
233	0x3e0b15db	0.13582556
234	0x3cec67d5	0.028858105
235	0x3e83b6ff	0.25725552
236	0xbe45117e	-0.19244954
237	0xbe1bc062	-0.15210107
238	0x3e2de56d	0.1698205
239	0xbe3a82d1	-0.18213965
240	0x3e4e50d2	0.20148018
241	0xbdaa3f6d	-0.08312879
242	0xbe22e31c	-0.15906948
243	0xbe53ae13	-0.20671873
244	0x3e791a5c	0.24326462
245	0xbe1e23ae	-0.15443298
246	0xbe57940c	-0.21052569
247	0x3e1b7974	0.1518305
248	0xbe8233e3	-0.2543021
249	0x3c669004	0.014072422
250	0x3de42236	0.11139338
251	0xbde118c3	-0.10991051
252	0xbe422b39	-0.189618
253	0x3d5f87f4	0.054573014
254	0x3d38f29f	0.045153257
255	0x3dd116f2	0.102094546

sequential/dense_2/MatMul f4 [16, 32]
0	0xbd0dc986	-0.034616016
1	0xbe7c5592	-0.24642017
2	0xbe0b3f32	-0.13598326
3	0x3ea35db5	0.3190743
4	0x3e00e95b	0.12589018
5	0xbe92bcdd	-0.28659716
6	0x3dabde64	0.08392027
7	0x3e078d6d	0.13237543
8	0xbd79ffee	-0.06103509
9	0xbe541e98	-0.20714796
10	0xbd6b8ccb	-0.057507318
11	0xbe1eba24	-0.15500695
12	0x3e627945	0.22116573
13	0xbe9b5e5e	-0.30345434
14	0x3c3f4c9d	0.011675981
15	0xbea9ae15	-0.33140627
16	0xbeef7a65	-0.46773067
17	0xbeddd438	-0.43325973
18	0xbe347496	-0.17622599
19	0x3deed4ec	0.116617054
20	0xbecaf812	-0.39642388
21	0xbeb9f35b	-0.36318478
22	0x3c1dcd20	0.009631425
23	0xbe7025c5	-0.23451908
24	0xbe0d0456	-0.13771185
25	0x3df8560e	0.12125789
26	0x3e65222a	0.22376314
27	0x3e808c07	0.25106832
28	0xbe0b51b2	-0.13605383
29	0x3d0bba8d	0.034113456
30	0x3af57597	0.0018727061
31	0xbe6c10e9	-0.23053326
32	0xbd92675b	-0.0714862
33	0x3dd2159d	0.10258029
34	0xbecea7ab	-0.40362296
35	0xbe3bc8de	-0.18338344
36	0xbe8accbf	-0.27109334
37	0xbdcdf372	-0.10056199
38	0x3e16e99a	0.1473755
39	0xbe936d4d	-0.28794327
40	0xbeb7ee0e	-0.3592381
41	0xbce15475	-0.027506093
42	0xbe2c9b0d	-0.16856022
43	0xbec3e2f6	-0.38259095
44	0x3e3d27da	0.18472233
45	0xbea51b23	-0.32247266
46	0x3e47acf5	0.19499572
47	0xbed2da0c	-0.41181982
48	0xbec40542	-0.3828526
49	0xbe5e4bd5	-0.21708615
50	0x3e768eb7	0.24077879
51	0xbd2df580	-0.042470455
52	0x3e4b4fee	0.1985471
53	0xbe721fdd	-0.23644967
54	0xbeba6152	-0.36402375
55	0x3c981246	0.018563401
56	0x3d23f861	0.040031794
57	0xbd8d1af6	-0.06889908
58	0xbee06704	-0.43828595
59	0x3ea30005	0.31835952
60	0xbe3d0de1	-0.18462326
61	0x3e843608	0.25822473
62	0xbdadd289	-0.08487422
63	0xbda2d721	-0.07951189
64	0xbd3c7b7d	-0.046016205
65	0x3e489449	0.19587816
66	0x3ce5411f	0.027985154
67	0xbe060995	-0.13089593
68	0xbe974f4e	-0.29552692
69	0x3e47169c	0.19442219
70	0xbe7849bd	-0.24246879
71	0x3e198e86	0.14995775
72	0xbde2e6d6	-0.11079185
73	0xbe515e77	-0.20446192
74	0xbd94147e	-0.07230471
75	0xbd4f08fc	-0.050545678
76	0xbe54b4c8	-0.20772088
77	0x3ebd9706	0.37029284
78	0xbde0ecea	-0.10982688
79	0x3ee461ed	0.4460596
80	0x3e98724d	0.29774705
81	0x3ac56394	0.0015059584
82	0x3da1bc50	0.07897246
83	0xbbdc5240	-0.006723672
84	0x3ebd9c0f	0.37033126
85	0x3e5c3d57	0.21507774
86	0xbd0f00ce	-0.034912877
87	0x3ed4015c	0.41407287
88	0xbd65caed	-0.05610173
89	0x3dfdf134	0.123995215
90	0x3ed59d8d	0.41721764
91	0xbdfdb892	-0.123887196
92	0x3e611a92	0.21982792
93	0xbde5bc6a	-0.11217578
94	0x3e946cae	0.28989166
95	0x3e53e808	0.20693982
96	0xba1f3637	-0.00060734473
97	0xbe97bc84	-0.29636014
98	0x3d054c5c	0.032543525
99	0xbe854593	-0.26029643
100	0xbe8453d1	-0.25845197
101	0x3cb022a1	0.021500887
102	0x3eae0b43	0.33992967
103	0xbca0a9d1	-0.019612225
104	0x3eee6c68	0.46567082
105	0xbe9ef434	-0.31045687
106	0xbd773b37	-0.060359206
107	0x3ecce0c4	0.40015233
108	0x3cdc76ea	0.026912171
109	0x3e5e3862	0.21701196
110	0xbd686fe1	-0.05674732
111	0xbd7e09ee	-0.06202119
112	0x3e2cacd7	0.16862808
113	0x3ece780b	0.4032596
114	0xbeaa5279	-0.33266047
115	0xbeb081cd	-0.3447403
116	0x3ec3635d	0.38161746
117	0x3e6967b0	0.2279346
118	0xbdf9a3e7	-0.12189465
119	0x3e919d49	0.28440312
120	0x3d299639	0.04140303
121	0xbd318ccf	-0.043347176
122	0xbdc8c2f9	-0.09802813
123	0x3e5d04a2	0.21583799
124	0x3ebfdede	0.37474722
125	0xbc5f6533	-0.013634968
126	0x3ee7c0a9	0.45264176
127	0xbdf10c1d	-0.117698886
128	0x3e6abd54	0.22923785
129	0x3dc23a14	0.09483734
130	0xbe563296	-0.20917735
131	0x3e7e66c3	0.24843888
132	0xbd1ee1f3	-0.0387897
133	0xbb09ebcb	-0.0021045085
134	0x3e330622	0.17482808
135	0xbe535155	-0.20636494
136	0x3ddb9e99	0.107236095
137	0x3e94f667	0.2909424
138	0xbd578b73	-0.052623224
139	0xbe3e2884	-0.18570143
140	0x3e475e4a	0.19469562
141	0x3dcb19d3	0.09917035
142	0xbd8be8e2	-0.06831528
143	0xbe401e96	-0.18761668
144	0xbed552cf	-0.4166474
145	0xbe9b91db	-0.30384716
146	0xbd148e8c	-0.036268756
147	0xbe307447	-0.17231856
148	0x3e04e57f	0.12978171
149	0xbe24cae1	-0.16093017
150	0xbeeaa59f	-0.45829484
151	0xbde53ff0	-0.11193836
152	0x3d8eed04	0.06978801
153	0xbc196f2f	-0.009364887
154	0xbe97c56d	-0.2964281
155	0xbdb1fe88	-0.08691126
156	0xbcea0302	-0.028565887
157	0x3ea33968	0.31879735
158	0xbe9e7f11	-0.3095632
159	0xbe979074	-0.29602396
160	0xbe159759	-0.14608516
161	0x3df25b3a	0.11833806
162	0xbe577fe9	-0.21044888
163	0xbde534ad	-0.11191688
164	0xbe377fc8	-0.17919838
165	0x3e7acd3c	0.24492353
166	0xbe4db260	-0.20087576
167	0x3ec5ecbc	0.38657176
168	0x3cd35531	0.025797458
169	0x3e18fe9a	0.14940873
170	0xbdc15f36	-0.09441988
171	0x3d89d2fa	0.06729694
172	0xbe364ea2	-0.17803434
173	0x3dcdee76	0.100552484
174	0x3d356859	0.044288967
175	0xbe02d65c	-0.12777084
176	0xbe50b034	-0.20379716
177	0x3e7ec68d	0.24880429
178	0xbc92e6d5	-0.017932335
179	0xbcb99ed0	-0.022658736
180	0xbe1e3bbc	-0.15452474
181	0xbde29ea6	-0.11065416
182	0xbdb6f97c	-0.08934304
183	0x3ebc665b	0.3679684
184	0xbea219b5	-0.31660238
185	0x3e4966d0	0.19668126
186	0x3e98ef4d	0.29870072
187	0xbded691c	-0.11592314
188	0xbe630941	-0.22171499
189	0x3de01a5c	0.10942528
190	0xbe5e3b12	-0.21702221
191	0x3ebd8b57	0.3702037
192	0x3e8c9b60	0.27462292
193	0xbe208a8f	-0.15677856
194	0xbecb3ba7	-0.3969395
195	0xbda68683	-0.08131125
196	0xbe5af09d	-0.21380849
197	0x3ce8222e	0.02833661
198	0x3c150680	0.009095788
199	0xbeb864d9	-0.3601444
200	0x3cfaa92b	0.030598244
201	0x3ea2be1f	0.31785676
202	0x3e0761aa	0.1322085
203	0x3e392c15	0.18083222
204	0xbe1c1b94	-0.15244895
205	0x3d9f0788	0.07765108
206	0x3e44e9fc	0.19229883
207	0xbe0e9838	-0.13925254
208	0x3e4cd845	0.20004375
209	0xbe70646c	-0.23475808
210	0xbe0e4f0e	-0.13897344
211	0x3e76ff92	0.2412093
212	0xbea941ea	-0.330581
213	0xbd32024c	-0.04345922
214	0xbdee33d2	-0.11630978
215	0x3cc8079c	0.024417691
216	0xbe440f90	-0.19146562
217	0xbe69d920	-0.22836733
218	0x3e1d643a	0.15370265
219	0x3dd27f80	0.10278225
220	0xbe6e0d5a	-0.2324728
221	0xbbc87a9e	-0.0061181327
222	0x3de45541	0.111490734
223	0xbd44513e	-0.04792904
224	0xbe9cb907	-0.30609915
225	0xbe0bcc83	-0.13652234
226	0x3eb7d343	0.35903367
227	0xbe9d0c51	-0.3067346
228	0x3e0e0f54	0.13873035
229	0x3ee06009	0.4382327
230	0xbea543a2	-0.32278162
231	0x3ede1543	0.43375596
232	0x3ee102df	0.43947503
233	0xbccf6825	-0.025318215
234	0x3db176ae	0.086652145
235	0x3ea1001c	0.31445396
236	0xbc0ef78d	-0.008726013
237	0x3ea398cd	0.31952515
238	0x3e9b1318	0.30288005
239	0x3e175514	0.14778548
240	0x3ea43b97	0.32076713
241	0x3e680128	0.22656691
242	0x3e4ffee2	0.20312074
243	0x3e2e938e	0.17048475
244	0xbd992a52	-0.07478775
245	0x3d87ec95	0.06636921
246	0x3e58fe98	0.2119087
247	0x3ec500db	0.38477215
248	0xbe357be3	-0.1772304
249	0x3e5a5847	0.21322738
250	0x3e8bea04	0.27326977
251	0x3da62458	0.08112401
252	0x3ed3aebb	0.41344246
253	0x3e64161f	0.22274064
254	0x3e15fa5c	0.14646286
255	0xbe0b0214	-0.13575011

sequential/dense_3/MatMul f4 [1, 16]
0	0xbe5ccf3e	-0.21563432
1	0xbecd12bb	-0.40053353
2	0x3e65bb1d	0.2243466
3	0x3f191031	0.5979033
4	0xbea20451	-0.31643918
5	0x3ecae0f5	0.39624754
6	0xbf040738	-0.51573515
7	0x3e983ad1	0.29732373
8	0xbebd6b66	-0.36996
9	0x3e7091a5	0.23493059
10	0xbe22b8dc	-0.15890831
11	0xbf1dbde7	-0.61617893
12	0x3f08a13a	0.5337101
13	0xbe3f1ed2	-0.18664101
14	0xbe527957	-0.205541
15	0x3eae3bd8	0.34030032
