androidApp/Mejaku/app/src/main/assets/mejaku_model_v2.tflite (tflite, 13724 bytes, 7 tensors)

dense_2/bias f4 [16]
00000000: b406 40bc f3b5 40bc eeb4 3bbc 9e02 513c
00000010: 17bc 3e3c 6e8e 3fbc 3f8d 403c 5691 633b
00000020: 161f 3e3c 0d19 3d3c 9287 3a3c ed1c 3dbc
00000030: 2618 3f3c 8d77 3bbc 0ad3 3cbc 7bb6 423c
-0.011720348 -0.01176213 -0.011456711 0.012756972 0.011641524 -0.011691673 0.011752426 0.0034724078
0.011604091 0.011541617 0.011384862 -0.011542541 0.011663472 -0.011442077 -0.011524925 0.011884327

dense_1/bias f4 [32]
00000000: 4bd1 6f3a 3d03 4f3c d36e a0bc 86de 77bb
00000010: d971 913c 9efa 51bc 3c73 503d 55ba 31bc
00000020: 952f b3bb 8755 5c3c 82e6 543c 1605 803c
00000030: 0000 0000 51ce ebbb 61d7 0b3c b49f 423c
00000040: 0bc8 4f3d 570e a6bb 57cc cf3c ddd6 603c
00000050: c70b 8dba 0000 0000 41be 343d 05aa 40bb
00000060: 3b4e 533c 15b6 29bc 18d6 093d a006 30bc
00000070: 1c59 083d 98a1 353c 7c5d 373d ccbb 2cbb
0.00091483135 0.012635049 -0.019584095 -0.0037821843 0.017754482 -0.012816099 0.050891146 -0.010847648
-0.0054683187 0.013448126 0.0129944105 0.015627425 0.0 -0.0071962257 0.008535237 0.0118788965
0.050727885 -0.0050676274 0.025365992 0.013723102 -0.0010760956 0.0 0.044126753 -0.0029398215
0.01289707 -0.010358353 0.03365144 -0.010743767 0.033288106 0.01108589 0.044766888 -0.0026357053

dense/bias f4 [64]
00000000: e620 3e3c c4c3 103c 1700 3c3c c6ea d4bc
00000010: 096b c1bb adf4 39bc 1adf 503c 3fd5 27bc
00000020: d40b 51bc 83bb 583c 7812 303c ad50 673b
00000030: d4bd 463c 46d6 723c 23f3 54bc 7f0d 3e3a
00000040: 4e34 763c f090 b1bb 948e 55bc d26e edbb
00000050: c1bf 93bc 8eeb 023c ef0c 34bc bb01 3dbc
00000060: 7260 3b3c 0c5d 743c e830 5f3c 49ac 443c
00000070: 76e4 dbbb 299e 87bc ce70 743c 279b 503c
00000080: dd2c 4f3c 3e78 2e3c f07a 1dbc 6604 5cbc
00000090: 1117 733c 5055 e5ba 48b5 c13c 5105 043c
000000a0: 633c cebc 8ce1 8dbc 550d 2dbc bac2 9abc
000000b0: 4d47 41bc e844 543c 1ac9 453c b607 543c
000000c0: b54a 433c cf5a 5bbc 2a04 a03c 515f 22bc
000000d0: 13e9 523c 0dca 4e3c 25a3 393c 9d55 aa3c
000000e0: 903d a03c 54b6 42bc 2d7c 5ebc 82a7 7abc
000000f0: 4fab 3dbc a4c8 493c 1220 4cbc 7e0e 893c
0.011604523 0.008835737 0.011474631 -0.025990855 -0.005902652 -0.011349839 0.012748504 -0.010243713
-0.012759168 0.0132283 0.010746591 0.003529589 0.0121302195 0.014821595 -0.012997421 0.0007249936
0.015027119 -0.005418889 -0.013034482 -0.007245877 -0.018035771 0.007990731 -0.010989412 -0.011536057
0.011436569 0.014914762 0.0136225 0.012003967 -0.0067105843 -0.016554909 0.014919473 0.012732304
0.012644974 0.010648785 -0.00961183 -0.013428783 0.014837042 -0.0017496739 0.023646012 0.008057908
-0.025175279 -0.017319463 -0.010562261 -0.018891681 -0.011796785 0.012955882 0.012071872 0.012941292
0.011919667 -0.01338835 0.019533236 -0.0099104205 0.012872952 0.012621415 0.011330401 0.020792777
0.019560605 -0.011884291 -0.0135794105 -0.015298726 -0.011576488 0.012315903 -0.012458818 0.016730543

sequential/dense/MatMul f4 [64, 4]
00000000: 1690 3a3e 00b6 b03d 8f7e 8f3e 39c5 6ebe
00000010: c511 0dbe e977 17bd 35be 42be c701 40bd
00000020: 40fb bcbc 9fba 1a3e 28d0 80be 0697 843e
00000030: d6f8 323d ae5c 5d3d 0f61 9a3c 86ac 57be
00000040: 898d 75bd 31b3 913e d20c 973e 8f74 f4bd
00000050: 01c8 8d3d 5c8a 79be 2b0b 81bd 8167 d7bd
00000060: bf5f 373c 76fa 8e3e fc86 0dbe 7274 b83d
00000070: eccf ba3d 1d4a 7abb 6f2d 0e3e 68c7 823e
00000080: 98a2 b4bc f126 023d ef6f 96be f513 893e
00000090: e360 c8bd 6484 92bc b738 643e e23c 883d
000000a0: 2dc0 88bd 6056 b03d 6e39 8fbe 7e6e 2a3d
000000b0: 3f20 353e 6ae8 933e 0a18 36be 349d 8a3e
000000c0: 6658 5a3e 27a2 8f3e de6e 50be 8624 823e
000000d0: fcb8 ca3d 10bc 0a3e b529 163e 5868 80be
000000e0: 8fe7 803e d78e 53be 9d2a 0e3e cf11 aebd
000000f0: 7b61 b83d 7b54 96be 00e2 863e b571 913c
00000100: 7335 f5bc cf8b b9bd 15c5 953d b526 5ebe
00000110: 96f0 d83c 6f47 a73c cc60 1dbe 1377 87be
00000120: c400 0b3e 2004 513e b1ff 6c3e 3f1d 1f3e
00000130: bd2a 933e 828c ed3d 60c2 833e 9abd a9bd
00000140: ad56 aebd f10e ebbd edb8 2f3e a330 62be
00000150: c398 88bd c0a9 4c3e 63a6 fa3d 05e8 0b3e
00000160: 2fca 803e 33fb bb3d 0dac 593e 9a96 803e
00000170: 2fd2 76be 7559 82be 0d69 d93d 13b8 413e
00000180: 3d20 ba3b 75da ca3b 72c9 8fbe 8e19 823e
00000190: 1285 b73d b285 c43d 0187 1c3e 7600 3abd
000001a0: 42ef 8a3d 70cc 53bd 941f e53b 9410 043d
000001b0: 4259 3e3e 85fb ab3d aa4c 4ebe 0557 6f3e
000001c0: 2ce4 03be 5080 1a3e bb9c ee3d 6678 283d
000001d0: a7d1 aebd 4489 dd3d 0af7 13bd 2c61 59be
000001e0: 7e96 063e e100 ba3d bb23 753e 1a90 083e
000001f0: 9661 3fbe f11d 683c 127c 333e 31c4 1c3e
00000200: 18db 6f3d f890 f23d 4180 433c dcb0 9ebd
00000210: 9519 73be fa58 abbc a9c7 693d b9e9 963e
00000220: 1775 d73d 01fe 46be 7e88 65be 7655 59bd
00000230: 1bba b0bc 9651 8c3e 710a 6f3e 7144 9dbd
00000240: 4e9a f8bd cdca 3c3e d538 1d3d 83d6 183e
00000250: 2471 533e b21a 343e 1491 093e 3b2e 003d
00000260: bf4c 373e 60aa 1cbe 2281 31be 410e 0f3e
00000270: c585 85be 8367 75be 0c06 75bd 8e41 5d3e
00000280: d2ab 96be 8487 9cbd 0400 403c e7be c9bd
00000290: abef 14be 95fc 76be c9d0 8ebc 59a6 85be
000002a0: 523a 2dbe d166 823d ece3 683e 50e4 8e3e
000002b0: 9bc7 50be 8603 613e 2c4a 873d 68cb 69be
000002c0: 06b2 55be 2b18 913e 97b3 cd3c 34f4 373e
000002d0: f924 f43c 9c0f a73d 9495 883e a874 f0bc
000002e0: b823 4abe 262a 883e 3a98 2c3e 491a c6bd
000002f0: 7333 48be 1304 8e3e 6399 f2bd a3df ad3d
00000300: 5b17 653e 5839 2fbe 8203 953e 7a71 463e
00000310: 4aeb 33be 72f9 233e 916c bcbc 59c8 81bb
00000320: aaa4 59be 3b87 73be e694 4f3e ed72 8b3e
00000330: ce29 233e 0994 c53c 59f5 7ebd 9c59 0fbd
00000340: caaf 083e 4711 5c3e 3c17 56bd 0143 bdbd
00000350: 2cb2 653e 7cc4 5f3e 4176 153e 727a 9b3e
00000360: aebe 483e 30a4 993e f426 793e 056d e6bd
00000370: 26fe 7c3c 562f d43d ce33 903e b292 153e
00000380: 3526 3f3e 5824 4cbc 1b0a 0dbe bfca c43d
00000390: 9d0c 7fbd 9e3c 98be 8d4c 06be 1651 c23c
000003a0: 5129 d5bd 1eb1 57be f04c 9f3c 34b7 7b3e
000003b0: 1ac4 313e a0a3 cb3d f15e be3b d5f6 98be
000003c0: 8921 843e 8bed 713e efa9 cf3c a00c 2c3c
000003d0: a064 c93d df07 8fbe f3d3 7cbe 8a68 56bd
000003e0: 16a4 323e d6f9 fe3c 9932 a43c 1a26 7b3e
000003f0: 4d08 863e 599f 8fbd 60da 8fbd 1550 8c3e
0.18219027 0.08628464 0.28026244 -0.23317422 -0.1377631 -0.03697959 -0.1901787 -0.046876695
-0.023069024 0.15110253 -0.2515881 0.25896472 0.04369434 0.054043464 0.01884511 -0.21061906
-0.05994943 0.28457025 0.2950197 -0.11936294 0.06922913 -0.24369186 -0.06300958 -0.10517789
0.011192261 0.27925462 -0.13821024 0.09006585 0.09121689 -0.0038191148 0.13884519 0.2554276
-0.022050187 0.03177542 -0.29382274 0.26773039 -0.09784105 -0.017885394 0.2228726 0.066522375
-0.066772796 0.08610225 -0.27973503 0.04160928 0.17688082 0.28888255 -0.17782608 0.2707306
0.21322784 0.280534 -0.20354792 0.2541849 0.09898564 0.13548303 0.14664347 -0.25079608
0.25176665 -0.20659958 0.13883443 -0.084994905 0.09002968 -0.29361328 0.263443 0.017754415
-0.029932713 -0.090598695 0.07312981 -0.21694453 0.026481908 0.020419804 -0.15368956 -0.26458034
0.13574511 0.2041173 0.23144414 0.155385 0.28743544 0.11599065 0.25734234 -0.08288117
-0.08512626 -0.11477459 0.17160387 -0.22088866 -0.06669762 0.1998663 0.12238767 0.13662727
0.25154254 0.09178772 0.21257038 0.251149 -0.24103616 -0.25458875 0.1061574 0.18917875
0.0056801126 0.006190593 -0.28083378 0.25410122 0.08960928 0.09595813 0.15285875 -0.045410596
0.06783916 -0.05170864 0.00699229 0.032242373 0.18588737 0.08397583 -0.20146433 0.23373039
-0.1288001 0.1508801 0.11650988 0.041130446 -0.08536082 0.10817197 -0.036124267 -0.21228474
0.13143346 0.09082199 0.23939411 0.1333622 -0.1868957 0.014167295 0.17527798 0.15309216
0.058558553 0.11844057 0.011932434 -0.07748577 -0.23740228 -0.02091645 0.057075176 0.2947519
0.1052038 -0.19432832 -0.22415349 -0.053060018 -0.021573117 0.27405995 0.23343827 -0.0767907
-0.12138806 0.18436737 0.038384277 0.1492558 0.20648628 0.17588308 0.13434249 0.03129409
0.1790037 -0.15299368 -0.17334417 0.13970281 -0.2607862 -0.23965268 -0.05982022 0.21607038
-0.29427963 -0.07643035 0.011718754 -0.09850865 -0.14544551 -0.2411979 -0.01743354 -0.26103476
-0.16916779 0.06367267 0.22743195 0.27908564 -0.20388643 0.21974 0.06605944 -0.228315
-0.20868692 0.2833875 0.02511005 0.1796425 0.029802786 0.08157274 0.2667662 -0.029352501
-0.19740188 0.26594657 0.16854945 -0.09672982 -0.19550876 0.27737483 -0.118456624 0.08489921
0.2237219 -0.17111719 0.2910424 0.19379225 -0.17570224 0.16013125 -0.023000987 -0.003960651
-0.2125422 -0.23782055 0.20271644 0.2723612 0.15933916 0.02411844 -0.0622457 -0.034997568
0.13348308 0.21490966 -0.05226825 -0.092412956 0.22431248 0.21852297 0.14595892 0.30366856
0.19603989 0.30008078 0.24331266 -0.112512626 0.015441453 0.10360591 0.28164524 0.14606741
0.18666919 -0.012459837 -0.13773386 0.09608983 -0.06226789 -0.29733747 -0.1311514 0.023720305
-0.10408271 -0.21063659 0.019445866 0.24581605 0.17359963 0.09943318 0.0058096577 -0.29875818
0.25806835 0.23625772 0.025349585 0.010501057 0.09833646 -0.27935693 -0.24690227 -0.05234579
0.17445406 0.03112499 0.020043658 0.24526253 0.26178208 -0.07012815 -0.070240736 0.27404848

sequential/dense_1/MatMul f4 [32, 64]
00000000: 926f 4bbd 299c d3bc 2431 04be 4825 fa3d
00000010: ac05 11be 9978 31be fea0 f33d aa44 c4bd
00000020: 654c bebd 0ff7 f4bc 767f aa3c ca78 763e
00000030: 995e 6a3b 0d3e 9c3c bf84 e33c 52a8 273e
00000040: 5228 53be a7bf 5a3e b8f3 953a 3c9f 4ebd
00000050: 29c0 2b3e 9884 b1bd 7e3e c23d 1ad0 1fbc
00000060: d59a 983c 3be1 3f3e 4436 0a3d d7ea c83d
00000070: 7e89 33bc 5b4d 2dbe 3473 9abd 95af f93c
00000080: 0153 573e f944 08be 99a6 923d 4b3f 4a3e
00000090: a352 3ebc ab4b 333e f368 763d 2bda 72be
000000a0: 54f3 c13d 85e8 0b3d 8775 3d3e 657a 563e
000000b0: 2d97 49be cf0a 29be eda3 c1bc 83d3 c8bc
000000c0: c7e9 34be 7d7f 17be e522 5fbe e8ce 063d
000000d0: 739c 30be 01d2 973d 43b1 70be 253e 31be
000000e0: bd34 48bd f063 04be f2ee a33c c510 5bbe
000000f0: 118f 023d b1fa af3d cf55 bdbd f1aa 25bd
00000100: cb7a abbd 3779 84be 7a5b 113e 1459 df3d
00000110: dfdc 3cbb 66b4 a6bd 3961 733e b4a1 0c3e
00000120: 9007 38be 5068 2a3e 8a66 163e c7d2 193e
00000130: 0ebf 813e e6c8 4c3e f4ce 0dbe 13a7 1f3c
00000140: d3ea 613e 77a7 72be b369 52be 2c49 68be
00000150: 4ca9 54be 9073 38be c235 05be 4d9f 75be
00000160: c2ef 673e e166 263e fde7 323e c121 843e
00000170: 805f 623e 1dc0 70be 3be2 abbd e244 223e
00000180: cb9e 423e 96f8 103e 11b7 7ebe d7a2 c13c
00000190: 3a85 1b3e a2bf e8bc 0154 35be 4eed 84bc
000001a0: ced9 373e 4088 ea3d 09fc 6ebc b313 8f3d
000001b0: ae71 30be 0420 c93d 42e8 fe3d 5c30 683e
000001c0: 07c6 133e 139a 05be 89af 463e 394e 013d
000001d0: c6dc 42be cd7c 6f3e 890c 893d 5bc1 6cbd
000001e0: 08b7 d73c db73 31be 8088 94bd eb48 8abe
000001f0: f2e4 47be 6075 0d3e 5e88 39be c1db 343c
00000200: 8c36 673e 8a65 4d3d 32cb 073e 3039 1cbd
00000210: 9953 26be ac20 71be d8cb 5dbe dfb6 6ebe
00000220: 16e3 ffbd d0dd bbbd d493 373e 94f6 07be
00000230: e390 a33d ef4c 6cbe 7c38 7fbe 785f 1a3e
00000240: 3e18 6d3e 69f6 1c3e c2b4 273e 7df4 15be
00000250: 2673 9a3d a779 3a3e 174e 743d 99c8 2dbe
00000260: 2222 24be 8f89 4c3e 49fd 9a3d 9600 15be
00000270: 0a6f ca3c 074e 70bd 1261 423d c049 f7bd
00000280: 94c5 31bd 3db2 103e 1e9f a3bd bd7e 11be
00000290: b75e 2a3d 46bd b3bd 2775 7abd 6846 01be
000002a0: d133 0bbe 84e5 bbbc b79a d23d f847 4c3e
000002b0: 7ed3 cfbd 7ee1 353e 2d54 f1bd 2a4b f03c
000002c0: ca52 183e 4793 9abd de08 2c3c ca4f 0c3e
000002d0: b2df 75be 6029 193d 5388 b53d 0901 093e
000002e0: 0993 b4bd d10a 373e 99b6 43bd 9e35 bdbc
000002f0: b93b 1bbd ef3c 2d3e 50a6 36be 49c4 63bc
00000300: 2d22 373e 1f32 03be 3d90 0ebe a019 5b3e
00000310: e0c0 49be 1fe0 70be 2add cdbd 7af1 41be
00000320: d690 d93d ae4d dd3c 2810 b0bc b455 b7bd
00000330: b2d8 d9bd 5e3e 073e 3131 7d3e c5f7 46be
00000340: 3b62 423d 318d be3d 076f 6bbe 1de1 53be
00000350: 36bf e3bb 27d8 2b3e 3bc8 06be 207b 8cbd
00000360: 0f39 3f3d 5ac2 433d d0b8 d03d 1c98 023e
00000370: 7c59 bbbc 76a2 403e 73a9 4dbd 9b61 edbb
00000380: 07e7 283e 1f6d 553e 4fde 5f3d 745c 573e
00000390: dcd9 31be 672e 2bbe 9ff5 b43d c735 00be
000003a0: b5c6 623e 945d 203d 0fb8 08bd fd4e 3dbe
000003b0: 4ce0 e1bd 9791 603e 0528 81bc 5c9e f43d
000003c0: 123c 3dbe 3ce6 f6bc e2cc c0bc e9e0 143e
000003d0: 0ccf f43d 9285 51be 3d25 70be 1635 adbb
000003e0: bb0d df3d 12cc c8bd d371 693e f3f4 ec3d
000003f0: 8788 3fbe 4b0c 483e 523b c83d 05b3 44be
-0.04966695 -0.025831299 -0.1290937 0.12214142 -0.1416232 -0.1733116 0.11895941 -0.09583409
-0.09291915 -0.029902963 0.020812731 0.24069515 0.003576195 0.019072557 0.02777326 0.16372803
-0.2062085 0.21362172 0.0011440432 -0.050444826 0.16772522 -0.086678684 0.09484576 -0.009754205
0.018628517 0.18738262 0.033743158 0.09810417 -0.010958074 -0.1692404 -0.075415045 0.030479232
0.21027757 -0.13307561 0.07160682 0.19750707 -0.011616382 0.17509334 0.06015868 -0.23716037
0.09470239 0.034157295 0.18501864 0.20945127 -0.19686575 -0.1650803 -0.023637736 -0.02451492
-0.17667304 -0.14794727 -0.21790655 0.032912165 -0.1724718 0.07413102 -0.2350512 -0.17308863
-0.04887842 -0.12928748 0.020011399 -0.21393116 0.03187472 0.085927375 -0.09244882 -0.040446226
-0.0837303 -0.2587373 0.14195052 0.10905662 -0.0028818173 -0.08139877 0.23767556 0.1373356
-0.17971635 0.16641355 0.14687553 0.15021811 0.25341076 0.19998512 -0.13848478 0.009744423
0.22062235 -0.23696695 -0.20548134 -0.22684163 -0.20767707 -0.18012834 -0.13008788 -0.2398655
0.22650054 0.16250183 0.17471309 0.25807002 0.22106743 -0.23510785 -0.083927594 0.15846589
0.19005887 0.14157328 -0.24874522 0.023637218 0.1518754 -0.02841169 -0.17707826 -0.016226437
0.1795418 0.11451769 -0.014586457 0.06986179 -0.17230865 0.098205596 0.124466434 0.22674698
0.1443101 -0.13047056 0.19402899 0.03156874 -0.19029531 0.23387451 0.06691844 -0.057801586
0.026332393 -0.17329352 -0.07252598 -0.27008757 -0.1952093 0.13814306 -0.18118426 0.011038722
0.22579402 0.050145663 0.13261107 -0.038140476 -0.16242827 -0.2354762 -0.21659791 -0.23311947
-0.12494485 -0.09173167 0.17927486 -0.13277656 0.07986619 -0.23076223 -0.24923891 0.15075481
0.23153779 0.15328373 0.16377547 -0.14644046 0.07541494 0.18210469 0.059644785 -0.16971053
-0.16028646 0.1997435 0.075678416 -0.14551005 0.02471115 -0.058668163 0.047455855 -0.120746136
-0.043401316 0.14130493 -0.079893336 -0.14208503 0.041594233 -0.087763354 -0.06114688 -0.12624514
-0.13593985 -0.02293659 0.10283416 0.19949329 -0.10147761 0.177618 -0.117836334 0.029332716
0.14875332 -0.07547622 0.010500161 0.13702312 -0.24011114 0.037392974 0.088638924 0.13379301
-0.08817107 0.1787522 -0.04778156 -0.023096856 -0.037898753 0.16917776 -0.1783688 -0.0139017785
0.17884131 -0.12812088 -0.1392221 0.21396494 -0.19702482 -0.23522995 -0.10051949 -0.18939772
0.106233284 0.02701458 -0.021492079 -0.089518934 -0.106370345 0.13207385 0.24725796 -0.19430454
0.04745696 0.09304274 -0.22991572 -0.20691343 -0.0069502844 0.16781674 -0.1316232 -0.06859422
0.046685275 0.04779277 0.101915 0.12753338 -0.022869818 0.18811974 -0.050210427 -0.0072443015
0.1649438 0.20842408 0.05465537 0.21031362 -0.17368263 -0.1671692 0.08835911 -0.12520514
0.22146113 0.039151743 -0.033378657 -0.18487163 -0.11029109 0.21930538 -0.015766153 0.11944267
-0.18479946 -0.030139081 -0.023535196 0.14538921 0.119535536 -0.2046111 -0.23451705 -0.0052858694
0.10891291 -0.09804548 0.22797327 0.11570158 -0.18704425 0.1953594 0.097769395 -0.19208916

sequential/dense_2/MatMul f4 [16, 32]
00000000: 71e6 b23e 2b1d 42be 74b9 a23e 71a3 633e
00000010: e56f 513e a679 593e 23f5 9c3d c899 8abe
00000020: 8d0c f33d 82f3 b2be d96c 9fbe e87b cabd
00000030: 164c 7b3e 1253 9dbe c209 a9be eacd f43d
00000040: a5f9 94be b6dc a23e 35ab 08be 55df 503e
00000050: 2f67 4bbe b233 123e 9f87 813e 6e91 a7be
00000060: e47f 4e3d c857 163e ddbe 333e 5741 5d3c
00000070: f4fe 7f3e 4df4 333e d309 3d3e 9c3f 81be
00000080: 2a00 58be 5011 6fbe ca10 47be d6da 0dbe
00000090: 046a 7abe 1545 abbc a88d 0c3e 5d3d a33e
000000a0: 205b ddbd da04 6e3e bc17 bf3d 4c0f bf3d
000000b0: 246b a63d 8aeb b6be 33ab eebd 5ca0 b7be
000000c0: a202 133e ad94 083e 59d5 97be d390 b0be
000000d0: c273 1fbe 5d35 873e 6f06 9ebe 4ddf b93d
000000e0: 143f a3be 01c7 19bc 2b40 89be e161 a9bc
000000f0: ae87 a43d 6928 3c3e 2d62 b2be 26a8 863c
00000100: 884b 1a3c 7b62 74be 7099 483e f8b3 a0bd
00000110: 51d2 9a3e dcf8 8c3e e3db a5be c2a9 b0bc
00000120: f015 dc3d e373 96bd 4860 d1bd 2100 523d
00000130: 1a4c 07be 260d 8f3e acfb 413d 44d5 83be
00000140: 7eb2 b8be 529c a83e 3e22 f8bd 7083 6f3e
00000150: 531d 5abe 6fde a3be 2236 37be 2245 863e
00000160: 445b 9ebe 7b99 9dbe 8412 8ebe 9dbe 943e
00000170: f2aa a43e 74ed fcbd 7881 2a3d 4736 3fbe
00000180: a299 533e ec4b 3a3e 330d 34bc a20f cabd
00000190: 3fbf a5be 6c29 843e 4dfb 6f3e bb95 9b3e
000001a0: 9d22 ab3e ee4d 6a3e 8e59 4b3e 97ca 39be
000001b0: 6838 3ebd a5cb 9fbe f36d b2bd 0671 193e
000001c0: 0ab9 153e fe57 783d fec5 69bd 4774 973e
000001d0: 272b 753e 9254 203e f0da 693e 0346 513e
000001e0: fdf5 d03d 7532 913e 5f67 36be 6ccc f0bd
000001f0: ffcb 77be eb28 573e 325f 0d3e c99a a7be
00000200: 0dfb d33d acd8 a53e c60e 933e 265d 8a3e
00000210: 9c29 19be 2bbb 843e 05a4 9b3d ab31 96be
00000220: d729 cf3d 04b8 71be 1d40 8d3e ac56 59be
00000230: c91f 873e c344 1ebe 9a91 1c3e b921 a13e
00000240: e9dd 563d 7c09 90be a646 6bbe d692 1f3c
00000250: f171 8f3c 8f8b 2ebe 1e55 9b3e b716 613e
00000260: afd5 04bd 729c 45be d7ec 8c3e 4b6b a9be
00000270: f126 42bc da8d 723e 7890 2f3e 352b 0b3e
00000280: ae6f 54be 9040 91be 57d1 ebbd c4ce ebbd
00000290: 882c 173e a15e fa3d b1ff 443e dfad 44be
000002a0: e2cd 263e 5077 143e 045c 6bbe f75f 343e
000002b0: df67 803e 40db d03d 3814 5cbe 9ef9 2c3e
000002c0: 7b24 9e3e 1242 a6be a80d afbe 8915 1bbe
000002d0: 06f0 df3d 436a 85be 2c30 573e a820 54be
000002e0: 295f 01be 9b86 1fbe 88c2 92be 5a57 dc3c
000002f0: 2368 e8bd 5f94 f33c 939b 8dbe 2adb 2c3e
00000300: 6fa6 313d f967 363e 14ba 0e3e 3581 5d3e
00000310: 618e 1a3e aa65 4c3e 96b5 b33e 8833 a63d
00000320: 9c09 a0be 9fb3 5a3d aa79 9a3e 5e4e 373e
00000330: 7c2e 8b3d f0c8 abbe 4a3c 9b3e 4b43 81bd
00000340: a151 4bbe 7ff5 77be f9be 093d 777a d8bd
00000350: 8331 fbbd 522c 033e 25b7 b73e 356e 243e
00000360: 7580 3bbd 09cc c3bc b730 9e3e e5a9 81be
00000370: 618a 4f3e e852 893e f13d 8fbe 8879 60be
00000380: bd4d 293d 7243 acbe 2531 693d 5428 36be
00000390: ccac 36be 408f abbe ca49 93be 9eb5 4fbe
000003a0: 78b9 14be 13f1 ae3e aba8 353e 7e42 abbe
000003b0: f550 08be c47b a1be 7211 c5bc fe51 323c
000003c0: b937 02bd b6ac d0bc 1861 293d 3554 5fbe
000003d0: 53cb ae3e 20fb f9bc bdc9 823d 7b13 6abe
000003e0: cd8b 9bbe 2167 3f3e e54f 343e d80a 1cbe
000003f0: b60d afbe 9c33 9cbe 12e9 97be c128 f73d
0.34941438 -0.18956439 0.31782115 0.22230317 0.2045284 0.21237811 0.076639436 -0.2707045
0.11867628 -0.34951407 -0.31137732 -0.098869145 0.24540743 -0.3072744 -0.33015257 0.119533375
-0.29096714 0.31809014 -0.1334656 0.20397694 -0.1986358 0.14277533 0.25298783 -0.32728142
0.050414935 0.14681923 0.17553277 0.013504348 0.249996 0.17573662 0.18460779 -0.25243843
-0.21093813 -0.23346448 -0.19439998 -0.1385301 -0.24454504 -0.020906964 0.13725913 0.31882754
-0.10808396 0.23244038 0.09330699 0.093290895 0.08125904 -0.35726577 -0.116537474 -0.35864532
0.14356473 0.13337965 -0.2965496 -0.34485492 -0.15571502 0.264079 -0.30864283 0.09075794
-0.31884062 -0.009385825 -0.2680677 -0.020676555 0.08033691 0.1837479 -0.34840527 0.016437601
0.009417422 -0.23865692 0.19589782 -0.07846826 0.30238584 0.27533615 -0.32394323 -0.021565322
0.10746372 -0.073463224 -0.10223442 0.051269654 -0.13212624 0.2793972 0.047359154 -0.25748646
-0.3607368 0.32931763 -0.12115906 0.23389983 -0.21300249 -0.3200564 -0.17891744 0.2622462
-0.30929005 -0.3078116 -0.277485 0.29051676 0.3216167 -0.12349978 0.041627377 -0.18673049
0.20664075 0.18193024 -0.010989475 -0.09866263 -0.32372472 0.25812852 0.23435707 0.30387673
0.33424845 0.2288129 0.19858381 -0.18143688 -0.046440512 -0.31210056 -0.087123774 0.14984521
0.14621368 0.06063079 -0.057073586 0.295809 0.23942243 0.15657261 0.22837424 0.20436864
0.102031685 0.28358808 -0.1781287 -0.117577404 -0.24198912 0.21011703 0.13805845 -0.3273528
0.103506185 0.3239187 0.2872221 0.27024192 -0.14957279 0.25924048 0.075996436 -0.2933477
0.10115402 -0.23605353 0.27587977 -0.21224469 0.26391438 -0.15455918 0.15289918 0.3147104
0.052457724 -0.28132236 -0.22976169 0.009739598 0.017510386 -0.17045425 0.30338377 0.21981321
-0.032430347 -0.1929796 0.27524444 -0.3308967 -0.011850105 0.23686925 0.17144954 0.13590701
-0.20745727 -0.2836957 -0.11514538 -0.11514047 0.14763081 0.1222508 0.19238164 -0.19206952
0.16289476 0.14498639 -0.2298432 0.17614733 0.25079247 0.101980686 -0.21492088 0.16892096
0.30887207 -0.32472283 -0.34190106 -0.15144934 0.10934453 -0.26057634 0.2101447 -0.20715582
-0.12633957 -0.15578692 -0.2866404 0.026897121 -0.113479875 0.029733835 -0.27657756 0.1688048
0.043371614 0.178131 0.1393817 0.2163132 0.15093376 0.19960657 0.35099477 0.081152976
-0.3125733 0.053393956 0.30170947 0.17900988 0.067959756 -0.3355174 0.30319434 -0.06311663
-0.19855358 -0.24214743 0.03362939 -0.10570233 -0.12265303 0.12809876 0.35881916 0.16057666
-0.045776803 -0.023901002 0.3089654 -0.25324932 0.20267631 0.26821065 -0.27976945 -0.2192136
0.041333903 -0.33645207 0.056931634 -0.17788821 -0.17839354 -0.3350773 -0.28767234 -0.20284125
-0.14523876 0.341683 0.17740123 -0.33449167 -0.13312133 -0.31539738 -0.02405617 0.010883806
-0.031791423 -0.02547298 0.04135236 -0.21809466 0.341395 -0.030515254 0.06386135 -0.22858994
-0.30380097 0.18691684 0.17608602 -0.15238512 -0.34190148 -0.30508125 -0.29670006 0.1206832

sequential/dense_3/MatMul f4 [1, 16]
00000000: 0fc0 1bbe fe35 1bbe ce26 11bf 56bf 3e3d
00000010: 4dc7 473e ecc5 32be 58c2 273e c3c5 68bb
00000020: 363e bb3e 9473 c03e d3c3 703e 0ebe 07bf
00000030: befc 393e bf9a 97be c723 c0be 0606 023e
-0.15209983 -0.15157315 -0.56699836 0.04656919 0.19509621 -0.17458314 0.1638273 -0.0035518266
0.365709 0.3758818 0.23512201 -0.53024375 0.1816282 -0.2961025 -0.37527296 0.1269761
